{
  "nodes": [
    {
      "op": "null", 
      "name": "target", 
      "inputs": []
    }, 
    {
      "op": "null", 
      "name": "target_embed_weight", 
      "attrs": {"__shape__": "(9, 32)"}, 
      "inputs": []
    }, 
    {
      "op": "Embedding", 
      "name": "target_embed_embed", 
      "attrs": {
        "input_dim": "9", 
        "output_dim": "32"
      }, 
      "inputs": [[0, 0, 0], [1, 0, 0]]
    }, 
    {
      "op": "_mul_scalar", 
      "name": "_mulscalar4", 
      "attrs": {"scalar": "5.656854249492381"}, 
      "inputs": [[2, 0, 0]]
    }, 
    {
      "op": "_arange", 
      "name": "_arange3", 
      "attrs": {
        "dtype": "float32", 
        "infer_range": "False", 
        "repeat": "1", 
        "start": "0", 
        "step": "1.0", 
        "stop": "100"
      }, 
      "inputs": []
    }, 
    {
      "op": "expand_dims", 
      "name": "expand_dims4", 
      "attrs": {"axis": "1"}, 
      "inputs": [[4, 0, 0]]
    }, 
    {
      "op": "_arange", 
      "name": "_arange4", 
      "attrs": {
        "dtype": "float32", 
        "infer_range": "False", 
        "repeat": "1", 
        "start": "0", 
        "step": "1.0", 
        "stop": "16"
      }, 
      "inputs": []
    }, 
    {
      "op": "_mul_scalar", 
      "name": "_mulscalar3", 
      "attrs": {"scalar": "2"}, 
      "inputs": [[6, 0, 0]]
    }, 
    {
      "op": "_div_scalar", 
      "name": "_divscalar1", 
      "attrs": {"scalar": "32"}, 
      "inputs": [[7, 0, 0]]
    }, 
    {
      "op": "_rpower_scalar", 
      "name": "_rpowerscalar1", 
      "attrs": {"scalar": "10000"}, 
      "inputs": [[8, 0, 0]]
    }, 
    {
      "op": "_rdiv_scalar", 
      "name": "_rdivscalar1", 
      "attrs": {"scalar": "1.0"}, 
      "inputs": [[9, 0, 0]]
    }, 
    {
      "op": "expand_dims", 
      "name": "expand_dims5", 
      "attrs": {"axis": "0"}, 
      "inputs": [[10, 0, 0]]
    }, 
    {
      "op": "dot", 
      "name": "dot1", 
      "inputs": [[5, 0, 0], [11, 0, 0]]
    }, 
    {
      "op": "sin", 
      "name": "sin1", 
      "inputs": [[12, 0, 0]]
    }, 
    {
      "op": "cos", 
      "name": "cos1", 
      "inputs": [[12, 0, 0]]
    }, 
    {
      "op": "Concat", 
      "name": "concat1", 
      "attrs": {
        "dim": "1", 
        "num_args": "2"
      }, 
      "inputs": [[13, 0, 0], [14, 0, 0]]
    }, 
    {
      "op": "BlockGrad", 
      "name": "blockgrad2", 
      "inputs": [[15, 0, 0]]
    }, 
    {
      "op": "broadcast_add", 
      "name": "target_pos_embed__add", 
      "inputs": [[3, 0, 0], [16, 0, 0]]
    }, 
    {
      "op": "Dropout", 
      "name": "dropout1", 
      "attrs": {"p": "0.1"}, 
      "inputs": [[17, 0, 0]]
    }, 
    {
      "op": "null", 
      "name": "decoder_transformer_0_att_self_pre_norm_gamma", 
      "attrs": {
        "__dtype__": "0", 
        "__init__": "[\"constant\", {\"value\": 1.0}]", 
        "__lr_mult__": "1.0", 
        "__storage_type__": "0", 
        "__wd_mult__": "1.0"
      }, 
      "inputs": []
    }, 
    {
      "op": "null", 
      "name": "decoder_transformer_0_att_self_pre_norm_beta", 
      "attrs": {
        "__dtype__": "0", 
        "__init__": "[\"constant\", {\"value\": 0.0}]", 
        "__lr_mult__": "1.0", 
        "__storage_type__": "0", 
        "__wd_mult__": "1.0"
      }, 
      "inputs": []
    }, 
    {
      "op": "LayerNorm", 
      "name": "decoder_transformer_0_att_self_pre_normlayernorm0", 
      "attrs": {
        "axis": "-1", 
        "eps": "1e-06", 
        "output_mean_var": "False"
      }, 
      "inputs": [[18, 0, 0], [19, 0, 0], [20, 0, 0]]
    }, 
    {
      "op": "null", 
      "name": "decoder_transformer_0_att_self_i2h_weight", 
      "attrs": {
        "__dtype__": "0", 
        "__lr_mult__": "1.0", 
        "__shape__": "(96, 0)", 
        "__storage_type__": "0", 
        "__wd_mult__": "1.0"
      }, 
      "inputs": []
    }, 
    {
      "op": "FullyConnected", 
      "name": "decoder_transformer_0_att_self_i2h_fwd", 
      "attrs": {
        "flatten": "False", 
        "no_bias": "True", 
        "num_hidden": "96"
      }, 
      "inputs": [[21, 0, 0], [22, 0, 0]]
    }, 
    {
      "op": "SliceChannel", 
      "name": "decoder_transformer_0_att_self_split0", 
      "attrs": {
        "axis": "2", 
        "num_outputs": "3"
      }, 
      "inputs": [[23, 0, 0]]
    }, 
    {
      "op": "_mul_scalar", 
      "name": "decoder_transformer_0_att_self__mulscalar0", 
      "attrs": {"scalar": "0.5"}, 
      "inputs": [[24, 0, 0]]
    }, 
    {
      "op": "Reshape", 
      "name": "decoder_transformer_0_att_self_reshape0", 
      "attrs": {"shape": "(0, -1, 8, 4)"}, 
      "inputs": [[25, 0, 0]]
    }, 
    {
      "op": "transpose", 
      "name": "decoder_transformer_0_att_self_transpose0", 
      "attrs": {"axes": "(0, 2, 1, 3)"}, 
      "inputs": [[26, 0, 0]]
    }, 
    {
      "op": "Reshape", 
      "name": "decoder_transformer_0_att_self_reshape1", 
      "attrs": {"shape": "(-3, -1, 4)"}, 
      "inputs": [[27, 0, 0]]
    }, 
    {
      "op": "Reshape", 
      "name": "decoder_transformer_0_att_self_reshape2", 
      "attrs": {"shape": "(0, -1, 8, 4)"}, 
      "inputs": [[24, 1, 0]]
    }, 
    {
      "op": "transpose", 
      "name": "decoder_transformer_0_att_self_transpose1", 
      "attrs": {"axes": "(0, 2, 1, 3)"}, 
      "inputs": [[29, 0, 0]]
    }, 
    {
      "op": "Reshape", 
      "name": "decoder_transformer_0_att_self_reshape3", 
      "attrs": {"shape": "(-3, -1, 4)"}, 
      "inputs": [[30, 0, 0]]
    }, 
    {
      "op": "batch_dot", 
      "name": "decoder_transformer_0_att_self_dot_attbatch_dot0", 
      "attrs": {"transpose_b": "True"}, 
      "inputs": [[28, 0, 0], [31, 0, 0]]
    }, 
    {
      "op": "_arange", 
      "name": "_arange2", 
      "attrs": {
        "dtype": "float32", 
        "infer_range": "False", 
        "repeat": "1", 
        "start": "100", 
        "step": "1.0", 
        "stop": "None"
      }, 
      "inputs": []
    }, 
    {
      "op": "Reshape", 
      "name": "reshape0", 
      "attrs": {"shape": "(1, -1)"}, 
      "inputs": [[33, 0, 0]]
    }, 
    {
      "op": "Reshape", 
      "name": "reshape1", 
      "attrs": {"shape": "(-1, 1)"}, 
      "inputs": [[33, 0, 0]]
    }, 
    {
      "op": "broadcast_greater", 
      "name": "broadcast_greater0", 
      "inputs": [[34, 0, 0], [35, 0, 0]]
    }, 
    {
      "op": "_mul_scalar", 
      "name": "_mulscalar2", 
      "attrs": {"scalar": "-99999999.0"}, 
      "inputs": [[36, 0, 0]]
    }, 
    {
      "op": "Reshape", 
      "name": "reshape2", 
      "attrs": {"shape": "(1, 100, 100)"}, 
      "inputs": [[37, 0, 0]]
    }, 
    {
      "op": "BlockGrad", 
      "name": "blockgrad1", 
      "inputs": [[38, 0, 0]]
    }, 
    {
      "op": "broadcast_add", 
      "name": "decoder_transformer_0_att_self_dot_attbroadcast_add0", 
      "inputs": [[32, 0, 0], [39, 0, 0]]
    }, 
    {
      "op": "softmax", 
      "name": "decoder_transformer_0_att_self_dot_attsoftmax0", 
      "attrs": {"axis": "-1"}, 
      "inputs": [[40, 0, 0]]
    }, 
    {
      "op": "Dropout", 
      "name": "decoder_transformer_0_att_self_dot_attdropout0", 
      "attrs": {"p": "0.1"}, 
      "inputs": [[41, 0, 0]]
    }, 
    {
      "op": "Reshape", 
      "name": "decoder_transformer_0_att_self_reshape4", 
      "attrs": {"shape": "(0, -1, 8, 4)"}, 
      "inputs": [[24, 2, 0]]
    }, 
    {
      "op": "transpose", 
      "name": "decoder_transformer_0_att_self_transpose2", 
      "attrs": {"axes": "(0, 2, 1, 3)"}, 
      "inputs": [[43, 0, 0]]
    }, 
    {
      "op": "Reshape", 
      "name": "decoder_transformer_0_att_self_reshape5", 
      "attrs": {"shape": "(-3, -1, 4)"}, 
      "inputs": [[44, 0, 0]]
    }, 
    {
      "op": "batch_dot", 
      "name": "decoder_transformer_0_att_self_dot_attbatch_dot1", 
      "inputs": [[42, 0, 0], [45, 0, 0]]
    }, 
    {
      "op": "Reshape", 
      "name": "decoder_transformer_0_att_self_reshape6", 
      "attrs": {"shape": "(-4, -1, 8, 0, 4)"}, 
      "inputs": [[46, 0, 0]]
    }, 
    {
      "op": "transpose", 
      "name": "decoder_transformer_0_att_self_transpose3", 
      "attrs": {"axes": "(0, 2, 1, 3)"}, 
      "inputs": [[47, 0, 0]]
    }, 
    {
      "op": "Reshape", 
      "name": "decoder_transformer_0_att_self_reshape7", 
      "attrs": {"shape": "(-1, 0, 32)"}, 
      "inputs": [[48, 0, 0]]
    }, 
    {
      "op": "null", 
      "name": "decoder_transformer_0_att_self_h2o_weight", 
      "attrs": {
        "__dtype__": "0", 
        "__lr_mult__": "1.0", 
        "__shape__": "(32, 0)", 
        "__storage_type__": "0", 
        "__wd_mult__": "1.0"
      }, 
      "inputs": []
    }, 
    {
      "op": "FullyConnected", 
      "name": "decoder_transformer_0_att_self_h2o_fwd", 
      "attrs": {
        "flatten": "False", 
        "no_bias": "True", 
        "num_hidden": "32"
      }, 
      "inputs": [[49, 0, 0], [50, 0, 0]]
    }, 
    {
      "op": "Dropout", 
      "name": "decoder_transformer_0_att_self_post_dropout0", 
      "attrs": {"p": "0.1"}, 
      "inputs": [[51, 0, 0]]
    }, 
    {
      "op": "elemwise_add", 
      "name": "decoder_transformer_0_att_self_post__plus0", 
      "inputs": [[52, 0, 0], [18, 0, 0]]
    }, 
    {
      "op": "null", 
      "name": "decoder_transformer_0_att_enc_pre_norm_gamma", 
      "attrs": {
        "__dtype__": "0", 
        "__init__": "[\"constant\", {\"value\": 1.0}]", 
        "__lr_mult__": "1.0", 
        "__storage_type__": "0", 
        "__wd_mult__": "1.0"
      }, 
      "inputs": []
    }, 
    {
      "op": "null", 
      "name": "decoder_transformer_0_att_enc_pre_norm_beta", 
      "attrs": {
        "__dtype__": "0", 
        "__init__": "[\"constant\", {\"value\": 0.0}]", 
        "__lr_mult__": "1.0", 
        "__storage_type__": "0", 
        "__wd_mult__": "1.0"
      }, 
      "inputs": []
    }, 
    {
      "op": "LayerNorm", 
      "name": "decoder_transformer_0_att_enc_pre_normlayernorm0", 
      "attrs": {
        "axis": "-1", 
        "eps": "1e-06", 
        "output_mean_var": "False"
      }, 
      "inputs": [[53, 0, 0], [54, 0, 0], [55, 0, 0]]
    }, 
    {
      "op": "null", 
      "name": "decoder_transformer_0_att_enc_q2h_weight", 
      "attrs": {
        "__dtype__": "0", 
        "__lr_mult__": "1.0", 
        "__shape__": "(32, 0)", 
        "__storage_type__": "0", 
        "__wd_mult__": "1.0"
      }, 
      "inputs": []
    }, 
    {
      "op": "FullyConnected", 
      "name": "decoder_transformer_0_att_enc_q2h_fwd", 
      "attrs": {
        "flatten": "False", 
        "no_bias": "True", 
        "num_hidden": "32"
      }, 
      "inputs": [[56, 0, 0], [57, 0, 0]]
    }, 
    {
      "op": "_mul_scalar", 
      "name": "decoder_transformer_0_att_enc__mulscalar0", 
      "attrs": {"scalar": "0.5"}, 
      "inputs": [[58, 0, 0]]
    }, 
    {
      "op": "Reshape", 
      "name": "decoder_transformer_0_att_enc_reshape0", 
      "attrs": {"shape": "(0, -1, 8, 4)"}, 
      "inputs": [[59, 0, 0]]
    }, 
    {
      "op": "transpose", 
      "name": "decoder_transformer_0_att_enc_transpose0", 
      "attrs": {"axes": "(0, 2, 1, 3)"}, 
      "inputs": [[60, 0, 0]]
    }, 
    {
      "op": "Reshape", 
      "name": "decoder_transformer_0_att_enc_reshape1", 
      "attrs": {"shape": "(-3, -1, 4)"}, 
      "inputs": [[61, 0, 0]]
    }, 
    {
      "op": "null", 
      "name": "source", 
      "inputs": []
    }, 
    {
      "op": "SliceChannel", 
      "name": "source_embed_factor_split", 
      "attrs": {
        "axis": "2", 
        "num_outputs": "2", 
        "squeeze_axis": "True"
      }, 
      "inputs": [[63, 0, 0]]
    }, 
    {
      "op": "null", 
      "name": "source_embed_weight", 
      "attrs": {"__shape__": "(35, 32)"}, 
      "inputs": []
    }, 
    {
      "op": "Embedding", 
      "name": "source_embed_embed", 
      "attrs": {
        "input_dim": "35", 
        "output_dim": "32"
      }, 
      "inputs": [[64, 0, 0], [65, 0, 0]]
    }, 
    {
      "op": "null", 
      "name": "source_embed_factor0_weight", 
      "attrs": {"__shape__": "(24, 16)"}, 
      "inputs": []
    }, 
    {
      "op": "Embedding", 
      "name": "source_embed_factor0_embed", 
      "attrs": {
        "input_dim": "24", 
        "output_dim": "16"
      }, 
      "inputs": [[64, 1, 0], [67, 0, 0]]
    }, 
    {
      "op": "Concat", 
      "name": "source_embed_embed_plus_factors", 
      "attrs": {
        "dim": "2", 
        "num_args": "2"
      }, 
      "inputs": [[66, 0, 0], [68, 0, 0]]
    }, 
    {
      "op": "_mul_scalar", 
      "name": "_mulscalar1", 
      "attrs": {"scalar": "6.928203230275509"}, 
      "inputs": [[69, 0, 0]]
    }, 
    {
      "op": "_arange", 
      "name": "_arange0", 
      "attrs": {
        "dtype": "float32", 
        "infer_range": "False", 
        "repeat": "1", 
        "start": "0", 
        "step": "1.0", 
        "stop": "100"
      }, 
      "inputs": []
    }, 
    {
      "op": "expand_dims", 
      "name": "expand_dims0", 
      "attrs": {"axis": "1"}, 
      "inputs": [[71, 0, 0]]
    }, 
    {
      "op": "_arange", 
      "name": "_arange1", 
      "attrs": {
        "dtype": "float32", 
        "infer_range": "False", 
        "repeat": "1", 
        "start": "0", 
        "step": "1.0", 
        "stop": "24"
      }, 
      "inputs": []
    }, 
    {
      "op": "_mul_scalar", 
      "name": "_mulscalar0", 
      "attrs": {"scalar": "2"}, 
      "inputs": [[73, 0, 0]]
    }, 
    {
      "op": "_div_scalar", 
      "name": "_divscalar0", 
      "attrs": {"scalar": "48"}, 
      "inputs": [[74, 0, 0]]
    }, 
    {
      "op": "_rpower_scalar", 
      "name": "_rpowerscalar0", 
      "attrs": {"scalar": "10000"}, 
      "inputs": [[75, 0, 0]]
    }, 
    {
      "op": "_rdiv_scalar", 
      "name": "_rdivscalar0", 
      "attrs": {"scalar": "1.0"}, 
      "inputs": [[76, 0, 0]]
    }, 
    {
      "op": "expand_dims", 
      "name": "expand_dims1", 
      "attrs": {"axis": "0"}, 
      "inputs": [[77, 0, 0]]
    }, 
    {
      "op": "dot", 
      "name": "dot0", 
      "inputs": [[72, 0, 0], [78, 0, 0]]
    }, 
    {
      "op": "sin", 
      "name": "sin0", 
      "inputs": [[79, 0, 0]]
    }, 
    {
      "op": "cos", 
      "name": "cos0", 
      "inputs": [[79, 0, 0]]
    }, 
    {
      "op": "Concat", 
      "name": "concat0", 
      "attrs": {
        "dim": "1", 
        "num_args": "2"
      }, 
      "inputs": [[80, 0, 0], [81, 0, 0]]
    }, 
    {
      "op": "BlockGrad", 
      "name": "blockgrad0", 
      "inputs": [[82, 0, 0]]
    }, 
    {
      "op": "broadcast_add", 
      "name": "source_pos_embed__add", 
      "inputs": [[70, 0, 0], [83, 0, 0]]
    }, 
    {
      "op": "Dropout", 
      "name": "dropout0", 
      "attrs": {"p": "0.1"}, 
      "inputs": [[84, 0, 0]]
    }, 
    {
      "op": "null", 
      "name": "encoder_transformer_0_att_self_pre_norm_gamma", 
      "attrs": {
        "__dtype__": "0", 
        "__init__": "[\"constant\", {\"value\": 1.0}]", 
        "__lr_mult__": "1.0", 
        "__storage_type__": "0", 
        "__wd_mult__": "1.0"
      }, 
      "inputs": []
    }, 
    {
      "op": "null", 
      "name": "encoder_transformer_0_att_self_pre_norm_beta", 
      "attrs": {
        "__dtype__": "0", 
        "__init__": "[\"constant\", {\"value\": 0.0}]", 
        "__lr_mult__": "1.0", 
        "__storage_type__": "0", 
        "__wd_mult__": "1.0"
      }, 
      "inputs": []
    }, 
    {
      "op": "LayerNorm", 
      "name": "encoder_transformer_0_att_self_pre_normlayernorm0", 
      "attrs": {
        "axis": "-1", 
        "eps": "1e-06", 
        "output_mean_var": "False"
      }, 
      "inputs": [[85, 0, 0], [86, 0, 0], [87, 0, 0]]
    }, 
    {
      "op": "null", 
      "name": "encoder_transformer_0_att_self_i2h_weight", 
      "attrs": {
        "__dtype__": "0", 
        "__lr_mult__": "1.0", 
        "__shape__": "(144, 0)", 
        "__storage_type__": "0", 
        "__wd_mult__": "1.0"
      }, 
      "inputs": []
    }, 
    {
      "op": "FullyConnected", 
      "name": "encoder_transformer_0_att_self_i2h_fwd", 
      "attrs": {
        "flatten": "False", 
        "no_bias": "True", 
        "num_hidden": "144"
      }, 
      "inputs": [[88, 0, 0], [89, 0, 0]]
    }, 
    {
      "op": "SliceChannel", 
      "name": "encoder_transformer_0_att_self_split0", 
      "attrs": {
        "axis": "2", 
        "num_outputs": "3"
      }, 
      "inputs": [[90, 0, 0]]
    }, 
    {
      "op": "_mul_scalar", 
      "name": "encoder_transformer_0_att_self__mulscalar0", 
      "attrs": {"scalar": "0.408248290463863"}, 
      "inputs": [[91, 0, 0]]
    }, 
    {
      "op": "Reshape", 
      "name": "encoder_transformer_0_att_self_reshape0", 
      "attrs": {"shape": "(0, -1, 8, 6)"}, 
      "inputs": [[92, 0, 0]]
    }, 
    {
      "op": "transpose", 
      "name": "encoder_transformer_0_att_self_transpose0", 
      "attrs": {"axes": "(0, 2, 1, 3)"}, 
      "inputs": [[93, 0, 0]]
    }, 
    {
      "op": "Reshape", 
      "name": "encoder_transformer_0_att_self_reshape1", 
      "attrs": {"shape": "(-3, -1, 6)"}, 
      "inputs": [[94, 0, 0]]
    }, 
    {
      "op": "Reshape", 
      "name": "encoder_transformer_0_att_self_reshape2", 
      "attrs": {"shape": "(0, -1, 8, 6)"}, 
      "inputs": [[91, 1, 0]]
    }, 
    {
      "op": "transpose", 
      "name": "encoder_transformer_0_att_self_transpose1", 
      "attrs": {"axes": "(0, 2, 1, 3)"}, 
      "inputs": [[96, 0, 0]]
    }, 
    {
      "op": "Reshape", 
      "name": "encoder_transformer_0_att_self_reshape3", 
      "attrs": {"shape": "(-3, -1, 6)"}, 
      "inputs": [[97, 0, 0]]
    }, 
    {
      "op": "batch_dot", 
      "name": "encoder_transformer_0_att_self_dot_attbatch_dot0", 
      "attrs": {"transpose_b": "True"}, 
      "inputs": [[95, 0, 0], [98, 0, 0]]
    }, 
    {
      "op": "SliceChannel", 
      "name": "split0", 
      "attrs": {
        "axis": "2", 
        "num_outputs": "2", 
        "squeeze_axis": "True"
      }, 
      "inputs": [[63, 0, 0]]
    }, 
    {
      "op": "_not_equal_scalar", 
      "name": "_not_equal_scalar0", 
      "attrs": {"scalar": "0"}, 
      "inputs": [[100, 0, 0]]
    }, 
    {
      "op": "sum", 
      "name": "sum0", 
      "attrs": {"axis": "1"}, 
      "inputs": [[101, 0, 0]]
    }, 
    {
      "op": "zeros_like", 
      "name": "encoder_transformer_biaszeros_like0", 
      "inputs": [[102, 0, 0]]
    }, 
    {
      "op": "Reshape", 
      "name": "encoder_transformer_biasreshape0", 
      "attrs": {"shape": "(-1, 1)"}, 
      "inputs": [[103, 0, 0]]
    }, 
    {
      "op": "broadcast_like", 
      "name": "encoder_transformer_biasbroadcast_like0", 
      "attrs": {
        "lhs_axes": "(1,)", 
        "rhs_axes": "(1,)"
      }, 
      "inputs": [[104, 0, 0], [85, 0, 0]]
    }, 
    {
      "op": "SequenceMask", 
      "name": "encoder_transformer_biassequencemask0", 
      "attrs": {
        "axis": "1", 
        "use_sequence_length": "True", 
        "value": "-99999999.0"
      }, 
      "inputs": [[105, 0, 0], [102, 0, 0]]
    }, 
    {
      "op": "expand_dims", 
      "name": "encoder_transformer_biasexpand_dims0", 
      "attrs": {"axis": "1"}, 
      "inputs": [[106, 0, 0]]
    }, 
    {
      "op": "broadcast_to", 
      "name": "encoder_transformer_biasbroadcast_to0", 
      "attrs": {"shape": "[0, 8, 0]"}, 
      "inputs": [[107, 0, 0]]
    }, 
    {
      "op": "Reshape", 
      "name": "encoder_transformer_biasreshape1", 
      "attrs": {"shape": "[-3, 0]"}, 
      "inputs": [[108, 0, 0]]
    }, 
    {
      "op": "BlockGrad", 
      "name": "encoder_transformer_biasblockgrad0", 
      "inputs": [[109, 0, 0]]
    }, 
    {
      "op": "expand_dims", 
      "name": "expand_dims2", 
      "attrs": {"axis": "1"}, 
      "inputs": [[110, 0, 0]]
    }, 
    {
      "op": "broadcast_add", 
      "name": "encoder_transformer_0_att_self_dot_attbroadcast_add0", 
      "inputs": [[99, 0, 0], [111, 0, 0]]
    }, 
    {
      "op": "softmax", 
      "name": "encoder_transformer_0_att_self_dot_attsoftmax0", 
      "attrs": {"axis": "-1"}, 
      "inputs": [[112, 0, 0]]
    }, 
    {
      "op": "Dropout", 
      "name": "encoder_transformer_0_att_self_dot_attdropout0", 
      "attrs": {"p": "0.1"}, 
      "inputs": [[113, 0, 0]]
    }, 
    {
      "op": "Reshape", 
      "name": "encoder_transformer_0_att_self_reshape4", 
      "attrs": {"shape": "(0, -1, 8, 6)"}, 
      "inputs": [[91, 2, 0]]
    }, 
    {
      "op": "transpose", 
      "name": "encoder_transformer_0_att_self_transpose2", 
      "attrs": {"axes": "(0, 2, 1, 3)"}, 
      "inputs": [[115, 0, 0]]
    }, 
    {
      "op": "Reshape", 
      "name": "encoder_transformer_0_att_self_reshape5", 
      "attrs": {"shape": "(-3, -1, 6)"}, 
      "inputs": [[116, 0, 0]]
    }, 
    {
      "op": "batch_dot", 
      "name": "encoder_transformer_0_att_self_dot_attbatch_dot1", 
      "inputs": [[114, 0, 0], [117, 0, 0]]
    }, 
    {
      "op": "Reshape", 
      "name": "encoder_transformer_0_att_self_reshape6", 
      "attrs": {"shape": "(-4, -1, 8, 0, 6)"}, 
      "inputs": [[118, 0, 0]]
    }, 
    {
      "op": "transpose", 
      "name": "encoder_transformer_0_att_self_transpose3", 
      "attrs": {"axes": "(0, 2, 1, 3)"}, 
      "inputs": [[119, 0, 0]]
    }, 
    {
      "op": "Reshape", 
      "name": "encoder_transformer_0_att_self_reshape7", 
      "attrs": {"shape": "(-1, 0, 48)"}, 
      "inputs": [[120, 0, 0]]
    }, 
    {
      "op": "null", 
      "name": "encoder_transformer_0_att_self_h2o_weight", 
      "attrs": {
        "__dtype__": "0", 
        "__lr_mult__": "1.0", 
        "__shape__": "(48, 0)", 
        "__storage_type__": "0", 
        "__wd_mult__": "1.0"
      }, 
      "inputs": []
    }, 
    {
      "op": "FullyConnected", 
      "name": "encoder_transformer_0_att_self_h2o_fwd", 
      "attrs": {
        "flatten": "False", 
        "no_bias": "True", 
        "num_hidden": "48"
      }, 
      "inputs": [[121, 0, 0], [122, 0, 0]]
    }, 
    {
      "op": "Dropout", 
      "name": "encoder_transformer_0_att_self_post_dropout0", 
      "attrs": {"p": "0.1"}, 
      "inputs": [[123, 0, 0]]
    }, 
    {
      "op": "elemwise_add", 
      "name": "encoder_transformer_0_att_self_post__plus0", 
      "inputs": [[124, 0, 0], [85, 0, 0]]
    }, 
    {
      "op": "null", 
      "name": "encoder_transformer_0_ff_pre_norm_gamma", 
      "attrs": {
        "__dtype__": "0", 
        "__init__": "[\"constant\", {\"value\": 1.0}]", 
        "__lr_mult__": "1.0", 
        "__storage_type__": "0", 
        "__wd_mult__": "1.0"
      }, 
      "inputs": []
    }, 
    {
      "op": "null", 
      "name": "encoder_transformer_0_ff_pre_norm_beta", 
      "attrs": {
        "__dtype__": "0", 
        "__init__": "[\"constant\", {\"value\": 0.0}]", 
        "__lr_mult__": "1.0", 
        "__storage_type__": "0", 
        "__wd_mult__": "1.0"
      }, 
      "inputs": []
    }, 
    {
      "op": "LayerNorm", 
      "name": "encoder_transformer_0_ff_pre_normlayernorm0", 
      "attrs": {
        "axis": "-1", 
        "eps": "1e-06", 
        "output_mean_var": "False"
      }, 
      "inputs": [[125, 0, 0], [126, 0, 0], [127, 0, 0]]
    }, 
    {
      "op": "null", 
      "name": "encoder_transformer_0_ff_i2h_weight", 
      "attrs": {
        "__dtype__": "0", 
        "__lr_mult__": "1.0", 
        "__shape__": "(16, 0)", 
        "__storage_type__": "0", 
        "__wd_mult__": "1.0"
      }, 
      "inputs": []
    }, 
    {
      "op": "null", 
      "name": "encoder_transformer_0_ff_i2h_bias", 
      "attrs": {
        "__dtype__": "0", 
        "__init__": "zeros", 
        "__lr_mult__": "1.0", 
        "__shape__": "(16,)", 
        "__storage_type__": "0", 
        "__wd_mult__": "1.0"
      }, 
      "inputs": []
    }, 
    {
      "op": "FullyConnected", 
      "name": "encoder_transformer_0_ff_i2h_fwd", 
      "attrs": {
        "flatten": "False", 
        "no_bias": "False", 
        "num_hidden": "16"
      }, 
      "inputs": [[128, 0, 0], [129, 0, 0], [130, 0, 0]]
    }, 
    {
      "op": "Activation", 
      "name": "encoder_transformer_0_ff_relu0_fwd", 
      "attrs": {"act_type": "relu"}, 
      "inputs": [[131, 0, 0]]
    }, 
    {
      "op": "Dropout", 
      "name": "encoder_transformer_0_ff_dropout0", 
      "attrs": {"p": "0.1"}, 
      "inputs": [[132, 0, 0]]
    }, 
    {
      "op": "null", 
      "name": "encoder_transformer_0_ff_h2o_weight", 
      "attrs": {
        "__dtype__": "0", 
        "__lr_mult__": "1.0", 
        "__shape__": "(48, 0)", 
        "__storage_type__": "0", 
        "__wd_mult__": "1.0"
      }, 
      "inputs": []
    }, 
    {
      "op": "null", 
      "name": "encoder_transformer_0_ff_h2o_bias", 
      "attrs": {
        "__dtype__": "0", 
        "__init__": "zeros", 
        "__lr_mult__": "1.0", 
        "__shape__": "(48,)", 
        "__storage_type__": "0", 
        "__wd_mult__": "1.0"
      }, 
      "inputs": []
    }, 
    {
      "op": "FullyConnected", 
      "name": "encoder_transformer_0_ff_h2o_fwd", 
      "attrs": {
        "flatten": "False", 
        "no_bias": "False", 
        "num_hidden": "48"
      }, 
      "inputs": [[133, 0, 0], [134, 0, 0], [135, 0, 0]]
    }, 
    {
      "op": "Dropout", 
      "name": "encoder_transformer_0_ff_post_dropout0", 
      "attrs": {"p": "0.1"}, 
      "inputs": [[136, 0, 0]]
    }, 
    {
      "op": "elemwise_add", 
      "name": "encoder_transformer_0_ff_post__plus0", 
      "inputs": [[137, 0, 0], [125, 0, 0]]
    }, 
    {
      "op": "null", 
      "name": "encoder_transformer_1_att_self_pre_norm_gamma", 
      "attrs": {
        "__dtype__": "0", 
        "__init__": "[\"constant\", {\"value\": 1.0}]", 
        "__lr_mult__": "1.0", 
        "__storage_type__": "0", 
        "__wd_mult__": "1.0"
      }, 
      "inputs": []
    }, 
    {
      "op": "null", 
      "name": "encoder_transformer_1_att_self_pre_norm_beta", 
      "attrs": {
        "__dtype__": "0", 
        "__init__": "[\"constant\", {\"value\": 0.0}]", 
        "__lr_mult__": "1.0", 
        "__storage_type__": "0", 
        "__wd_mult__": "1.0"
      }, 
      "inputs": []
    }, 
    {
      "op": "LayerNorm", 
      "name": "encoder_transformer_1_att_self_pre_normlayernorm0", 
      "attrs": {
        "axis": "-1", 
        "eps": "1e-06", 
        "output_mean_var": "False"
      }, 
      "inputs": [[138, 0, 0], [139, 0, 0], [140, 0, 0]]
    }, 
    {
      "op": "null", 
      "name": "encoder_transformer_1_att_self_i2h_weight", 
      "attrs": {
        "__dtype__": "0", 
        "__lr_mult__": "1.0", 
        "__shape__": "(144, 0)", 
        "__storage_type__": "0", 
        "__wd_mult__": "1.0"
      }, 
      "inputs": []
    }, 
    {
      "op": "FullyConnected", 
      "name": "encoder_transformer_1_att_self_i2h_fwd", 
      "attrs": {
        "flatten": "False", 
        "no_bias": "True", 
        "num_hidden": "144"
      }, 
      "inputs": [[141, 0, 0], [142, 0, 0]]
    }, 
    {
      "op": "SliceChannel", 
      "name": "encoder_transformer_1_att_self_split0", 
      "attrs": {
        "axis": "2", 
        "num_outputs": "3"
      }, 
      "inputs": [[143, 0, 0]]
    }, 
    {
      "op": "_mul_scalar", 
      "name": "encoder_transformer_1_att_self__mulscalar0", 
      "attrs": {"scalar": "0.408248290463863"}, 
      "inputs": [[144, 0, 0]]
    }, 
    {
      "op": "Reshape", 
      "name": "encoder_transformer_1_att_self_reshape0", 
      "attrs": {"shape": "(0, -1, 8, 6)"}, 
      "inputs": [[145, 0, 0]]
    }, 
    {
      "op": "transpose", 
      "name": "encoder_transformer_1_att_self_transpose0", 
      "attrs": {"axes": "(0, 2, 1, 3)"}, 
      "inputs": [[146, 0, 0]]
    }, 
    {
      "op": "Reshape", 
      "name": "encoder_transformer_1_att_self_reshape1", 
      "attrs": {"shape": "(-3, -1, 6)"}, 
      "inputs": [[147, 0, 0]]
    }, 
    {
      "op": "Reshape", 
      "name": "encoder_transformer_1_att_self_reshape2", 
      "attrs": {"shape": "(0, -1, 8, 6)"}, 
      "inputs": [[144, 1, 0]]
    }, 
    {
      "op": "transpose", 
      "name": "encoder_transformer_1_att_self_transpose1", 
      "attrs": {"axes": "(0, 2, 1, 3)"}, 
      "inputs": [[149, 0, 0]]
    }, 
    {
      "op": "Reshape", 
      "name": "encoder_transformer_1_att_self_reshape3", 
      "attrs": {"shape": "(-3, -1, 6)"}, 
      "inputs": [[150, 0, 0]]
    }, 
    {
      "op": "batch_dot", 
      "name": "encoder_transformer_1_att_self_dot_attbatch_dot0", 
      "attrs": {"transpose_b": "True"}, 
      "inputs": [[148, 0, 0], [151, 0, 0]]
    }, 
    {
      "op": "broadcast_add", 
      "name": "encoder_transformer_1_att_self_dot_attbroadcast_add0", 
      "inputs": [[152, 0, 0], [111, 0, 0]]
    }, 
    {
      "op": "softmax", 
      "name": "encoder_transformer_1_att_self_dot_attsoftmax0", 
      "attrs": {"axis": "-1"}, 
      "inputs": [[153, 0, 0]]
    }, 
    {
      "op": "Dropout", 
      "name": "encoder_transformer_1_att_self_dot_attdropout0", 
      "attrs": {"p": "0.1"}, 
      "inputs": [[154, 0, 0]]
    }, 
    {
      "op": "Reshape", 
      "name": "encoder_transformer_1_att_self_reshape4", 
      "attrs": {"shape": "(0, -1, 8, 6)"}, 
      "inputs": [[144, 2, 0]]
    }, 
    {
      "op": "transpose", 
      "name": "encoder_transformer_1_att_self_transpose2", 
      "attrs": {"axes": "(0, 2, 1, 3)"}, 
      "inputs": [[156, 0, 0]]
    }, 
    {
      "op": "Reshape", 
      "name": "encoder_transformer_1_att_self_reshape5", 
      "attrs": {"shape": "(-3, -1, 6)"}, 
      "inputs": [[157, 0, 0]]
    }, 
    {
      "op": "batch_dot", 
      "name": "encoder_transformer_1_att_self_dot_attbatch_dot1", 
      "inputs": [[155, 0, 0], [158, 0, 0]]
    }, 
    {
      "op": "Reshape", 
      "name": "encoder_transformer_1_att_self_reshape6", 
      "attrs": {"shape": "(-4, -1, 8, 0, 6)"}, 
      "inputs": [[159, 0, 0]]
    }, 
    {
      "op": "transpose", 
      "name": "encoder_transformer_1_att_self_transpose3", 
      "attrs": {"axes": "(0, 2, 1, 3)"}, 
      "inputs": [[160, 0, 0]]
    }, 
    {
      "op": "Reshape", 
      "name": "encoder_transformer_1_att_self_reshape7", 
      "attrs": {"shape": "(-1, 0, 48)"}, 
      "inputs": [[161, 0, 0]]
    }, 
    {
      "op": "null", 
      "name": "encoder_transformer_1_att_self_h2o_weight", 
      "attrs": {
        "__dtype__": "0", 
        "__lr_mult__": "1.0", 
        "__shape__": "(48, 0)", 
        "__storage_type__": "0", 
        "__wd_mult__": "1.0"
      }, 
      "inputs": []
    }, 
    {
      "op": "FullyConnected", 
      "name": "encoder_transformer_1_att_self_h2o_fwd", 
      "attrs": {
        "flatten": "False", 
        "no_bias": "True", 
        "num_hidden": "48"
      }, 
      "inputs": [[162, 0, 0], [163, 0, 0]]
    }, 
    {
      "op": "Dropout", 
      "name": "encoder_transformer_1_att_self_post_dropout0", 
      "attrs": {"p": "0.1"}, 
      "inputs": [[164, 0, 0]]
    }, 
    {
      "op": "elemwise_add", 
      "name": "encoder_transformer_1_att_self_post__plus0", 
      "inputs": [[165, 0, 0], [138, 0, 0]]
    }, 
    {
      "op": "null", 
      "name": "encoder_transformer_1_ff_pre_norm_gamma", 
      "attrs": {
        "__dtype__": "0", 
        "__init__": "[\"constant\", {\"value\": 1.0}]", 
        "__lr_mult__": "1.0", 
        "__storage_type__": "0", 
        "__wd_mult__": "1.0"
      }, 
      "inputs": []
    }, 
    {
      "op": "null", 
      "name": "encoder_transformer_1_ff_pre_norm_beta", 
      "attrs": {
        "__dtype__": "0", 
        "__init__": "[\"constant\", {\"value\": 0.0}]", 
        "__lr_mult__": "1.0", 
        "__storage_type__": "0", 
        "__wd_mult__": "1.0"
      }, 
      "inputs": []
    }, 
    {
      "op": "LayerNorm", 
      "name": "encoder_transformer_1_ff_pre_normlayernorm0", 
      "attrs": {
        "axis": "-1", 
        "eps": "1e-06", 
        "output_mean_var": "False"
      }, 
      "inputs": [[166, 0, 0], [167, 0, 0], [168, 0, 0]]
    }, 
    {
      "op": "null", 
      "name": "encoder_transformer_1_ff_i2h_weight", 
      "attrs": {
        "__dtype__": "0", 
        "__lr_mult__": "1.0", 
        "__shape__": "(16, 0)", 
        "__storage_type__": "0", 
        "__wd_mult__": "1.0"
      }, 
      "inputs": []
    }, 
    {
      "op": "null", 
      "name": "encoder_transformer_1_ff_i2h_bias", 
      "attrs": {
        "__dtype__": "0", 
        "__init__": "zeros", 
        "__lr_mult__": "1.0", 
        "__shape__": "(16,)", 
        "__storage_type__": "0", 
        "__wd_mult__": "1.0"
      }, 
      "inputs": []
    }, 
    {
      "op": "FullyConnected", 
      "name": "encoder_transformer_1_ff_i2h_fwd", 
      "attrs": {
        "flatten": "False", 
        "no_bias": "False", 
        "num_hidden": "16"
      }, 
      "inputs": [[169, 0, 0], [170, 0, 0], [171, 0, 0]]
    }, 
    {
      "op": "Activation", 
      "name": "encoder_transformer_1_ff_relu0_fwd", 
      "attrs": {"act_type": "relu"}, 
      "inputs": [[172, 0, 0]]
    }, 
    {
      "op": "Dropout", 
      "name": "encoder_transformer_1_ff_dropout0", 
      "attrs": {"p": "0.1"}, 
      "inputs": [[173, 0, 0]]
    }, 
    {
      "op": "null", 
      "name": "encoder_transformer_1_ff_h2o_weight", 
      "attrs": {
        "__dtype__": "0", 
        "__lr_mult__": "1.0", 
        "__shape__": "(48, 0)", 
        "__storage_type__": "0", 
        "__wd_mult__": "1.0"
      }, 
      "inputs": []
    }, 
    {
      "op": "null", 
      "name": "encoder_transformer_1_ff_h2o_bias", 
      "attrs": {
        "__dtype__": "0", 
        "__init__": "zeros", 
        "__lr_mult__": "1.0", 
        "__shape__": "(48,)", 
        "__storage_type__": "0", 
        "__wd_mult__": "1.0"
      }, 
      "inputs": []
    }, 
    {
      "op": "FullyConnected", 
      "name": "encoder_transformer_1_ff_h2o_fwd", 
      "attrs": {
        "flatten": "False", 
        "no_bias": "False", 
        "num_hidden": "48"
      }, 
      "inputs": [[174, 0, 0], [175, 0, 0], [176, 0, 0]]
    }, 
    {
      "op": "Dropout", 
      "name": "encoder_transformer_1_ff_post_dropout0", 
      "attrs": {"p": "0.1"}, 
      "inputs": [[177, 0, 0]]
    }, 
    {
      "op": "elemwise_add", 
      "name": "encoder_transformer_1_ff_post__plus0", 
      "inputs": [[178, 0, 0], [166, 0, 0]]
    }, 
    {
      "op": "null", 
      "name": "encoder_transformer_2_att_self_pre_norm_gamma", 
      "attrs": {
        "__dtype__": "0", 
        "__init__": "[\"constant\", {\"value\": 1.0}]", 
        "__lr_mult__": "1.0", 
        "__storage_type__": "0", 
        "__wd_mult__": "1.0"
      }, 
      "inputs": []
    }, 
    {
      "op": "null", 
      "name": "encoder_transformer_2_att_self_pre_norm_beta", 
      "attrs": {
        "__dtype__": "0", 
        "__init__": "[\"constant\", {\"value\": 0.0}]", 
        "__lr_mult__": "1.0", 
        "__storage_type__": "0", 
        "__wd_mult__": "1.0"
      }, 
      "inputs": []
    }, 
    {
      "op": "LayerNorm", 
      "name": "encoder_transformer_2_att_self_pre_normlayernorm0", 
      "attrs": {
        "axis": "-1", 
        "eps": "1e-06", 
        "output_mean_var": "False"
      }, 
      "inputs": [[179, 0, 0], [180, 0, 0], [181, 0, 0]]
    }, 
    {
      "op": "null", 
      "name": "encoder_transformer_2_att_self_i2h_weight", 
      "attrs": {
        "__dtype__": "0", 
        "__lr_mult__": "1.0", 
        "__shape__": "(144, 0)", 
        "__storage_type__": "0", 
        "__wd_mult__": "1.0"
      }, 
      "inputs": []
    }, 
    {
      "op": "FullyConnected", 
      "name": "encoder_transformer_2_att_self_i2h_fwd", 
      "attrs": {
        "flatten": "False", 
        "no_bias": "True", 
        "num_hidden": "144"
      }, 
      "inputs": [[182, 0, 0], [183, 0, 0]]
    }, 
    {
      "op": "SliceChannel", 
      "name": "encoder_transformer_2_att_self_split0", 
      "attrs": {
        "axis": "2", 
        "num_outputs": "3"
      }, 
      "inputs": [[184, 0, 0]]
    }, 
    {
      "op": "_mul_scalar", 
      "name": "encoder_transformer_2_att_self__mulscalar0", 
      "attrs": {"scalar": "0.408248290463863"}, 
      "inputs": [[185, 0, 0]]
    }, 
    {
      "op": "Reshape", 
      "name": "encoder_transformer_2_att_self_reshape0", 
      "attrs": {"shape": "(0, -1, 8, 6)"}, 
      "inputs": [[186, 0, 0]]
    }, 
    {
      "op": "transpose", 
      "name": "encoder_transformer_2_att_self_transpose0", 
      "attrs": {"axes": "(0, 2, 1, 3)"}, 
      "inputs": [[187, 0, 0]]
    }, 
    {
      "op": "Reshape", 
      "name": "encoder_transformer_2_att_self_reshape1", 
      "attrs": {"shape": "(-3, -1, 6)"}, 
      "inputs": [[188, 0, 0]]
    }, 
    {
      "op": "Reshape", 
      "name": "encoder_transformer_2_att_self_reshape2", 
      "attrs": {"shape": "(0, -1, 8, 6)"}, 
      "inputs": [[185, 1, 0]]
    }, 
    {
      "op": "transpose", 
      "name": "encoder_transformer_2_att_self_transpose1", 
      "attrs": {"axes": "(0, 2, 1, 3)"}, 
      "inputs": [[190, 0, 0]]
    }, 
    {
      "op": "Reshape", 
      "name": "encoder_transformer_2_att_self_reshape3", 
      "attrs": {"shape": "(-3, -1, 6)"}, 
      "inputs": [[191, 0, 0]]
    }, 
    {
      "op": "batch_dot", 
      "name": "encoder_transformer_2_att_self_dot_attbatch_dot0", 
      "attrs": {"transpose_b": "True"}, 
      "inputs": [[189, 0, 0], [192, 0, 0]]
    }, 
    {
      "op": "broadcast_add", 
      "name": "encoder_transformer_2_att_self_dot_attbroadcast_add0", 
      "inputs": [[193, 0, 0], [111, 0, 0]]
    }, 
    {
      "op": "softmax", 
      "name": "encoder_transformer_2_att_self_dot_attsoftmax0", 
      "attrs": {"axis": "-1"}, 
      "inputs": [[194, 0, 0]]
    }, 
    {
      "op": "Dropout", 
      "name": "encoder_transformer_2_att_self_dot_attdropout0", 
      "attrs": {"p": "0.1"}, 
      "inputs": [[195, 0, 0]]
    }, 
    {
      "op": "Reshape", 
      "name": "encoder_transformer_2_att_self_reshape4", 
      "attrs": {"shape": "(0, -1, 8, 6)"}, 
      "inputs": [[185, 2, 0]]
    }, 
    {
      "op": "transpose", 
      "name": "encoder_transformer_2_att_self_transpose2", 
      "attrs": {"axes": "(0, 2, 1, 3)"}, 
      "inputs": [[197, 0, 0]]
    }, 
    {
      "op": "Reshape", 
      "name": "encoder_transformer_2_att_self_reshape5", 
      "attrs": {"shape": "(-3, -1, 6)"}, 
      "inputs": [[198, 0, 0]]
    }, 
    {
      "op": "batch_dot", 
      "name": "encoder_transformer_2_att_self_dot_attbatch_dot1", 
      "inputs": [[196, 0, 0], [199, 0, 0]]
    }, 
    {
      "op": "Reshape", 
      "name": "encoder_transformer_2_att_self_reshape6", 
      "attrs": {"shape": "(-4, -1, 8, 0, 6)"}, 
      "inputs": [[200, 0, 0]]
    }, 
    {
      "op": "transpose", 
      "name": "encoder_transformer_2_att_self_transpose3", 
      "attrs": {"axes": "(0, 2, 1, 3)"}, 
      "inputs": [[201, 0, 0]]
    }, 
    {
      "op": "Reshape", 
      "name": "encoder_transformer_2_att_self_reshape7", 
      "attrs": {"shape": "(-1, 0, 48)"}, 
      "inputs": [[202, 0, 0]]
    }, 
    {
      "op": "null", 
      "name": "encoder_transformer_2_att_self_h2o_weight", 
      "attrs": {
        "__dtype__": "0", 
        "__lr_mult__": "1.0", 
        "__shape__": "(48, 0)", 
        "__storage_type__": "0", 
        "__wd_mult__": "1.0"
      }, 
      "inputs": []
    }, 
    {
      "op": "FullyConnected", 
      "name": "encoder_transformer_2_att_self_h2o_fwd", 
      "attrs": {
        "flatten": "False", 
        "no_bias": "True", 
        "num_hidden": "48"
      }, 
      "inputs": [[203, 0, 0], [204, 0, 0]]
    }, 
    {
      "op": "Dropout", 
      "name": "encoder_transformer_2_att_self_post_dropout0", 
      "attrs": {"p": "0.1"}, 
      "inputs": [[205, 0, 0]]
    }, 
    {
      "op": "elemwise_add", 
      "name": "encoder_transformer_2_att_self_post__plus0", 
      "inputs": [[206, 0, 0], [179, 0, 0]]
    }, 
    {
      "op": "null", 
      "name": "encoder_transformer_2_ff_pre_norm_gamma", 
      "attrs": {
        "__dtype__": "0", 
        "__init__": "[\"constant\", {\"value\": 1.0}]", 
        "__lr_mult__": "1.0", 
        "__storage_type__": "0", 
        "__wd_mult__": "1.0"
      }, 
      "inputs": []
    }, 
    {
      "op": "null", 
      "name": "encoder_transformer_2_ff_pre_norm_beta", 
      "attrs": {
        "__dtype__": "0", 
        "__init__": "[\"constant\", {\"value\": 0.0}]", 
        "__lr_mult__": "1.0", 
        "__storage_type__": "0", 
        "__wd_mult__": "1.0"
      }, 
      "inputs": []
    }, 
    {
      "op": "LayerNorm", 
      "name": "encoder_transformer_2_ff_pre_normlayernorm0", 
      "attrs": {
        "axis": "-1", 
        "eps": "1e-06", 
        "output_mean_var": "False"
      }, 
      "inputs": [[207, 0, 0], [208, 0, 0], [209, 0, 0]]
    }, 
    {
      "op": "null", 
      "name": "encoder_transformer_2_ff_i2h_weight", 
      "attrs": {
        "__dtype__": "0", 
        "__lr_mult__": "1.0", 
        "__shape__": "(16, 0)", 
        "__storage_type__": "0", 
        "__wd_mult__": "1.0"
      }, 
      "inputs": []
    }, 
    {
      "op": "null", 
      "name": "encoder_transformer_2_ff_i2h_bias", 
      "attrs": {
        "__dtype__": "0", 
        "__init__": "zeros", 
        "__lr_mult__": "1.0", 
        "__shape__": "(16,)", 
        "__storage_type__": "0", 
        "__wd_mult__": "1.0"
      }, 
      "inputs": []
    }, 
    {
      "op": "FullyConnected", 
      "name": "encoder_transformer_2_ff_i2h_fwd", 
      "attrs": {
        "flatten": "False", 
        "no_bias": "False", 
        "num_hidden": "16"
      }, 
      "inputs": [[210, 0, 0], [211, 0, 0], [212, 0, 0]]
    }, 
    {
      "op": "Activation", 
      "name": "encoder_transformer_2_ff_relu0_fwd", 
      "attrs": {"act_type": "relu"}, 
      "inputs": [[213, 0, 0]]
    }, 
    {
      "op": "Dropout", 
      "name": "encoder_transformer_2_ff_dropout0", 
      "attrs": {"p": "0.1"}, 
      "inputs": [[214, 0, 0]]
    }, 
    {
      "op": "null", 
      "name": "encoder_transformer_2_ff_h2o_weight", 
      "attrs": {
        "__dtype__": "0", 
        "__lr_mult__": "1.0", 
        "__shape__": "(48, 0)", 
        "__storage_type__": "0", 
        "__wd_mult__": "1.0"
      }, 
      "inputs": []
    }, 
    {
      "op": "null", 
      "name": "encoder_transformer_2_ff_h2o_bias", 
      "attrs": {
        "__dtype__": "0", 
        "__init__": "zeros", 
        "__lr_mult__": "1.0", 
        "__shape__": "(48,)", 
        "__storage_type__": "0", 
        "__wd_mult__": "1.0"
      }, 
      "inputs": []
    }, 
    {
      "op": "FullyConnected", 
      "name": "encoder_transformer_2_ff_h2o_fwd", 
      "attrs": {
        "flatten": "False", 
        "no_bias": "False", 
        "num_hidden": "48"
      }, 
      "inputs": [[215, 0, 0], [216, 0, 0], [217, 0, 0]]
    }, 
    {
      "op": "Dropout", 
      "name": "encoder_transformer_2_ff_post_dropout0", 
      "attrs": {"p": "0.1"}, 
      "inputs": [[218, 0, 0]]
    }, 
    {
      "op": "elemwise_add", 
      "name": "encoder_transformer_2_ff_post__plus0", 
      "inputs": [[219, 0, 0], [207, 0, 0]]
    }, 
    {
      "op": "null", 
      "name": "encoder_transformer_3_att_self_pre_norm_gamma", 
      "attrs": {
        "__dtype__": "0", 
        "__init__": "[\"constant\", {\"value\": 1.0}]", 
        "__lr_mult__": "1.0", 
        "__storage_type__": "0", 
        "__wd_mult__": "1.0"
      }, 
      "inputs": []
    }, 
    {
      "op": "null", 
      "name": "encoder_transformer_3_att_self_pre_norm_beta", 
      "attrs": {
        "__dtype__": "0", 
        "__init__": "[\"constant\", {\"value\": 0.0}]", 
        "__lr_mult__": "1.0", 
        "__storage_type__": "0", 
        "__wd_mult__": "1.0"
      }, 
      "inputs": []
    }, 
    {
      "op": "LayerNorm", 
      "name": "encoder_transformer_3_att_self_pre_normlayernorm0", 
      "attrs": {
        "axis": "-1", 
        "eps": "1e-06", 
        "output_mean_var": "False"
      }, 
      "inputs": [[220, 0, 0], [221, 0, 0], [222, 0, 0]]
    }, 
    {
      "op": "null", 
      "name": "encoder_transformer_3_att_self_i2h_weight", 
      "attrs": {
        "__dtype__": "0", 
        "__lr_mult__": "1.0", 
        "__shape__": "(144, 0)", 
        "__storage_type__": "0", 
        "__wd_mult__": "1.0"
      }, 
      "inputs": []
    }, 
    {
      "op": "FullyConnected", 
      "name": "encoder_transformer_3_att_self_i2h_fwd", 
      "attrs": {
        "flatten": "False", 
        "no_bias": "True", 
        "num_hidden": "144"
      }, 
      "inputs": [[223, 0, 0], [224, 0, 0]]
    }, 
    {
      "op": "SliceChannel", 
      "name": "encoder_transformer_3_att_self_split0", 
      "attrs": {
        "axis": "2", 
        "num_outputs": "3"
      }, 
      "inputs": [[225, 0, 0]]
    }, 
    {
      "op": "_mul_scalar", 
      "name": "encoder_transformer_3_att_self__mulscalar0", 
      "attrs": {"scalar": "0.408248290463863"}, 
      "inputs": [[226, 0, 0]]
    }, 
    {
      "op": "Reshape", 
      "name": "encoder_transformer_3_att_self_reshape0", 
      "attrs": {"shape": "(0, -1, 8, 6)"}, 
      "inputs": [[227, 0, 0]]
    }, 
    {
      "op": "transpose", 
      "name": "encoder_transformer_3_att_self_transpose0", 
      "attrs": {"axes": "(0, 2, 1, 3)"}, 
      "inputs": [[228, 0, 0]]
    }, 
    {
      "op": "Reshape", 
      "name": "encoder_transformer_3_att_self_reshape1", 
      "attrs": {"shape": "(-3, -1, 6)"}, 
      "inputs": [[229, 0, 0]]
    }, 
    {
      "op": "Reshape", 
      "name": "encoder_transformer_3_att_self_reshape2", 
      "attrs": {"shape": "(0, -1, 8, 6)"}, 
      "inputs": [[226, 1, 0]]
    }, 
    {
      "op": "transpose", 
      "name": "encoder_transformer_3_att_self_transpose1", 
      "attrs": {"axes": "(0, 2, 1, 3)"}, 
      "inputs": [[231, 0, 0]]
    }, 
    {
      "op": "Reshape", 
      "name": "encoder_transformer_3_att_self_reshape3", 
      "attrs": {"shape": "(-3, -1, 6)"}, 
      "inputs": [[232, 0, 0]]
    }, 
    {
      "op": "batch_dot", 
      "name": "encoder_transformer_3_att_self_dot_attbatch_dot0", 
      "attrs": {"transpose_b": "True"}, 
      "inputs": [[230, 0, 0], [233, 0, 0]]
    }, 
    {
      "op": "broadcast_add", 
      "name": "encoder_transformer_3_att_self_dot_attbroadcast_add0", 
      "inputs": [[234, 0, 0], [111, 0, 0]]
    }, 
    {
      "op": "softmax", 
      "name": "encoder_transformer_3_att_self_dot_attsoftmax0", 
      "attrs": {"axis": "-1"}, 
      "inputs": [[235, 0, 0]]
    }, 
    {
      "op": "Dropout", 
      "name": "encoder_transformer_3_att_self_dot_attdropout0", 
      "attrs": {"p": "0.1"}, 
      "inputs": [[236, 0, 0]]
    }, 
    {
      "op": "Reshape", 
      "name": "encoder_transformer_3_att_self_reshape4", 
      "attrs": {"shape": "(0, -1, 8, 6)"}, 
      "inputs": [[226, 2, 0]]
    }, 
    {
      "op": "transpose", 
      "name": "encoder_transformer_3_att_self_transpose2", 
      "attrs": {"axes": "(0, 2, 1, 3)"}, 
      "inputs": [[238, 0, 0]]
    }, 
    {
      "op": "Reshape", 
      "name": "encoder_transformer_3_att_self_reshape5", 
      "attrs": {"shape": "(-3, -1, 6)"}, 
      "inputs": [[239, 0, 0]]
    }, 
    {
      "op": "batch_dot", 
      "name": "encoder_transformer_3_att_self_dot_attbatch_dot1", 
      "inputs": [[237, 0, 0], [240, 0, 0]]
    }, 
    {
      "op": "Reshape", 
      "name": "encoder_transformer_3_att_self_reshape6", 
      "attrs": {"shape": "(-4, -1, 8, 0, 6)"}, 
      "inputs": [[241, 0, 0]]
    }, 
    {
      "op": "transpose", 
      "name": "encoder_transformer_3_att_self_transpose3", 
      "attrs": {"axes": "(0, 2, 1, 3)"}, 
      "inputs": [[242, 0, 0]]
    }, 
    {
      "op": "Reshape", 
      "name": "encoder_transformer_3_att_self_reshape7", 
      "attrs": {"shape": "(-1, 0, 48)"}, 
      "inputs": [[243, 0, 0]]
    }, 
    {
      "op": "null", 
      "name": "encoder_transformer_3_att_self_h2o_weight", 
      "attrs": {
        "__dtype__": "0", 
        "__lr_mult__": "1.0", 
        "__shape__": "(48, 0)", 
        "__storage_type__": "0", 
        "__wd_mult__": "1.0"
      }, 
      "inputs": []
    }, 
    {
      "op": "FullyConnected", 
      "name": "encoder_transformer_3_att_self_h2o_fwd", 
      "attrs": {
        "flatten": "False", 
        "no_bias": "True", 
        "num_hidden": "48"
      }, 
      "inputs": [[244, 0, 0], [245, 0, 0]]
    }, 
    {
      "op": "Dropout", 
      "name": "encoder_transformer_3_att_self_post_dropout0", 
      "attrs": {"p": "0.1"}, 
      "inputs": [[246, 0, 0]]
    }, 
    {
      "op": "elemwise_add", 
      "name": "encoder_transformer_3_att_self_post__plus0", 
      "inputs": [[247, 0, 0], [220, 0, 0]]
    }, 
    {
      "op": "null", 
      "name": "encoder_transformer_3_ff_pre_norm_gamma", 
      "attrs": {
        "__dtype__": "0", 
        "__init__": "[\"constant\", {\"value\": 1.0}]", 
        "__lr_mult__": "1.0", 
        "__storage_type__": "0", 
        "__wd_mult__": "1.0"
      }, 
      "inputs": []
    }, 
    {
      "op": "null", 
      "name": "encoder_transformer_3_ff_pre_norm_beta", 
      "attrs": {
        "__dtype__": "0", 
        "__init__": "[\"constant\", {\"value\": 0.0}]", 
        "__lr_mult__": "1.0", 
        "__storage_type__": "0", 
        "__wd_mult__": "1.0"
      }, 
      "inputs": []
    }, 
    {
      "op": "LayerNorm", 
      "name": "encoder_transformer_3_ff_pre_normlayernorm0", 
      "attrs": {
        "axis": "-1", 
        "eps": "1e-06", 
        "output_mean_var": "False"
      }, 
      "inputs": [[248, 0, 0], [249, 0, 0], [250, 0, 0]]
    }, 
    {
      "op": "null", 
      "name": "encoder_transformer_3_ff_i2h_weight", 
      "attrs": {
        "__dtype__": "0", 
        "__lr_mult__": "1.0", 
        "__shape__": "(16, 0)", 
        "__storage_type__": "0", 
        "__wd_mult__": "1.0"
      }, 
      "inputs": []
    }, 
    {
      "op": "null", 
      "name": "encoder_transformer_3_ff_i2h_bias", 
      "attrs": {
        "__dtype__": "0", 
        "__init__": "zeros", 
        "__lr_mult__": "1.0", 
        "__shape__": "(16,)", 
        "__storage_type__": "0", 
        "__wd_mult__": "1.0"
      }, 
      "inputs": []
    }, 
    {
      "op": "FullyConnected", 
      "name": "encoder_transformer_3_ff_i2h_fwd", 
      "attrs": {
        "flatten": "False", 
        "no_bias": "False", 
        "num_hidden": "16"
      }, 
      "inputs": [[251, 0, 0], [252, 0, 0], [253, 0, 0]]
    }, 
    {
      "op": "Activation", 
      "name": "encoder_transformer_3_ff_relu0_fwd", 
      "attrs": {"act_type": "relu"}, 
      "inputs": [[254, 0, 0]]
    }, 
    {
      "op": "Dropout", 
      "name": "encoder_transformer_3_ff_dropout0", 
      "attrs": {"p": "0.1"}, 
      "inputs": [[255, 0, 0]]
    }, 
    {
      "op": "null", 
      "name": "encoder_transformer_3_ff_h2o_weight", 
      "attrs": {
        "__dtype__": "0", 
        "__lr_mult__": "1.0", 
        "__shape__": "(48, 0)", 
        "__storage_type__": "0", 
        "__wd_mult__": "1.0"
      }, 
      "inputs": []
    }, 
    {
      "op": "null", 
      "name": "encoder_transformer_3_ff_h2o_bias", 
      "attrs": {
        "__dtype__": "0", 
        "__init__": "zeros", 
        "__lr_mult__": "1.0", 
        "__shape__": "(48,)", 
        "__storage_type__": "0", 
        "__wd_mult__": "1.0"
      }, 
      "inputs": []
    }, 
    {
      "op": "FullyConnected", 
      "name": "encoder_transformer_3_ff_h2o_fwd", 
      "attrs": {
        "flatten": "False", 
        "no_bias": "False", 
        "num_hidden": "48"
      }, 
      "inputs": [[256, 0, 0], [257, 0, 0], [258, 0, 0]]
    }, 
    {
      "op": "Dropout", 
      "name": "encoder_transformer_3_ff_post_dropout0", 
      "attrs": {"p": "0.1"}, 
      "inputs": [[259, 0, 0]]
    }, 
    {
      "op": "elemwise_add", 
      "name": "encoder_transformer_3_ff_post__plus0", 
      "inputs": [[260, 0, 0], [248, 0, 0]]
    }, 
    {
      "op": "null", 
      "name": "encoder_transformer_final_process_norm_gamma", 
      "attrs": {
        "__dtype__": "0", 
        "__init__": "[\"constant\", {\"value\": 1.0}]", 
        "__lr_mult__": "1.0", 
        "__storage_type__": "0", 
        "__wd_mult__": "1.0"
      }, 
      "inputs": []
    }, 
    {
      "op": "null", 
      "name": "encoder_transformer_final_process_norm_beta", 
      "attrs": {
        "__dtype__": "0", 
        "__init__": "[\"constant\", {\"value\": 0.0}]", 
        "__lr_mult__": "1.0", 
        "__storage_type__": "0", 
        "__wd_mult__": "1.0"
      }, 
      "inputs": []
    }, 
    {
      "op": "LayerNorm", 
      "name": "encoder_transformer_final_process_normlayernorm0", 
      "attrs": {
        "axis": "-1", 
        "eps": "1e-06", 
        "output_mean_var": "False"
      }, 
      "inputs": [[261, 0, 0], [262, 0, 0], [263, 0, 0]]
    }, 
    {
      "op": "null", 
      "name": "decoder_transformer_0_att_enc_k2h_weight", 
      "attrs": {
        "__dtype__": "0", 
        "__lr_mult__": "1.0", 
        "__shape__": "(32, 0)", 
        "__storage_type__": "0", 
        "__wd_mult__": "1.0"
      }, 
      "inputs": []
    }, 
    {
      "op": "FullyConnected", 
      "name": "decoder_transformer_0_att_enc_k2h_fwd", 
      "attrs": {
        "flatten": "False", 
        "no_bias": "True", 
        "num_hidden": "32"
      }, 
      "inputs": [[264, 0, 0], [265, 0, 0]]
    }, 
    {
      "op": "Reshape", 
      "name": "decoder_transformer_0_att_enc_reshape2", 
      "attrs": {"shape": "(0, -1, 8, 4)"}, 
      "inputs": [[266, 0, 0]]
    }, 
    {
      "op": "transpose", 
      "name": "decoder_transformer_0_att_enc_transpose1", 
      "attrs": {"axes": "(0, 2, 1, 3)"}, 
      "inputs": [[267, 0, 0]]
    }, 
    {
      "op": "Reshape", 
      "name": "decoder_transformer_0_att_enc_reshape3", 
      "attrs": {"shape": "(-3, -1, 4)"}, 
      "inputs": [[268, 0, 0]]
    }, 
    {
      "op": "batch_dot", 
      "name": "decoder_transformer_0_att_enc_dot_attbatch_dot0", 
      "attrs": {"transpose_b": "True"}, 
      "inputs": [[62, 0, 0], [269, 0, 0]]
    }, 
    {
      "op": "zeros_like", 
      "name": "decoder_transformer_source_biaszeros_like0", 
      "inputs": [[102, 0, 0]]
    }, 
    {
      "op": "Reshape", 
      "name": "decoder_transformer_source_biasreshape0", 
      "attrs": {"shape": "(-1, 1)"}, 
      "inputs": [[271, 0, 0]]
    }, 
    {
      "op": "broadcast_like", 
      "name": "decoder_transformer_source_biasbroadcast_like0", 
      "attrs": {
        "lhs_axes": "(1,)", 
        "rhs_axes": "(1,)"
      }, 
      "inputs": [[272, 0, 0], [264, 0, 0]]
    }, 
    {
      "op": "SequenceMask", 
      "name": "decoder_transformer_source_biassequencemask0", 
      "attrs": {
        "axis": "1", 
        "use_sequence_length": "True", 
        "value": "-99999999.0"
      }, 
      "inputs": [[273, 0, 0], [102, 0, 0]]
    }, 
    {
      "op": "expand_dims", 
      "name": "decoder_transformer_source_biasexpand_dims0", 
      "attrs": {"axis": "1"}, 
      "inputs": [[274, 0, 0]]
    }, 
    {
      "op": "broadcast_to", 
      "name": "decoder_transformer_source_biasbroadcast_to0", 
      "attrs": {"shape": "[0, 8, 0]"}, 
      "inputs": [[275, 0, 0]]
    }, 
    {
      "op": "Reshape", 
      "name": "decoder_transformer_source_biasreshape1", 
      "attrs": {"shape": "[-3, 0]"}, 
      "inputs": [[276, 0, 0]]
    }, 
    {
      "op": "BlockGrad", 
      "name": "decoder_transformer_source_biasblockgrad0", 
      "inputs": [[277, 0, 0]]
    }, 
    {
      "op": "expand_dims", 
      "name": "expand_dims3", 
      "attrs": {"axis": "1"}, 
      "inputs": [[278, 0, 0]]
    }, 
    {
      "op": "broadcast_add", 
      "name": "decoder_transformer_0_att_enc_dot_attbroadcast_add0", 
      "inputs": [[270, 0, 0], [279, 0, 0]]
    }, 
    {
      "op": "softmax", 
      "name": "decoder_transformer_0_att_enc_dot_attsoftmax0", 
      "attrs": {"axis": "-1"}, 
      "inputs": [[280, 0, 0]]
    }, 
    {
      "op": "Dropout", 
      "name": "decoder_transformer_0_att_enc_dot_attdropout0", 
      "attrs": {"p": "0.1"}, 
      "inputs": [[281, 0, 0]]
    }, 
    {
      "op": "null", 
      "name": "decoder_transformer_0_att_enc_v2h_weight", 
      "attrs": {
        "__dtype__": "0", 
        "__lr_mult__": "1.0", 
        "__shape__": "(32, 0)", 
        "__storage_type__": "0", 
        "__wd_mult__": "1.0"
      }, 
      "inputs": []
    }, 
    {
      "op": "FullyConnected", 
      "name": "decoder_transformer_0_att_enc_v2h_fwd", 
      "attrs": {
        "flatten": "False", 
        "no_bias": "True", 
        "num_hidden": "32"
      }, 
      "inputs": [[264, 0, 0], [283, 0, 0]]
    }, 
    {
      "op": "Reshape", 
      "name": "decoder_transformer_0_att_enc_reshape4", 
      "attrs": {"shape": "(0, -1, 8, 4)"}, 
      "inputs": [[284, 0, 0]]
    }, 
    {
      "op": "transpose", 
      "name": "decoder_transformer_0_att_enc_transpose2", 
      "attrs": {"axes": "(0, 2, 1, 3)"}, 
      "inputs": [[285, 0, 0]]
    }, 
    {
      "op": "Reshape", 
      "name": "decoder_transformer_0_att_enc_reshape5", 
      "attrs": {"shape": "(-3, -1, 4)"}, 
      "inputs": [[286, 0, 0]]
    }, 
    {
      "op": "batch_dot", 
      "name": "decoder_transformer_0_att_enc_dot_attbatch_dot1", 
      "inputs": [[282, 0, 0], [287, 0, 0]]
    }, 
    {
      "op": "Reshape", 
      "name": "decoder_transformer_0_att_enc_reshape6", 
      "attrs": {"shape": "(-4, -1, 8, 0, 4)"}, 
      "inputs": [[288, 0, 0]]
    }, 
    {
      "op": "transpose", 
      "name": "decoder_transformer_0_att_enc_transpose3", 
      "attrs": {"axes": "(0, 2, 1, 3)"}, 
      "inputs": [[289, 0, 0]]
    }, 
    {
      "op": "Reshape", 
      "name": "decoder_transformer_0_att_enc_reshape7", 
      "attrs": {"shape": "(-1, 0, 32)"}, 
      "inputs": [[290, 0, 0]]
    }, 
    {
      "op": "null", 
      "name": "decoder_transformer_0_att_enc_h2o_weight", 
      "attrs": {
        "__dtype__": "0", 
        "__lr_mult__": "1.0", 
        "__shape__": "(32, 0)", 
        "__storage_type__": "0", 
        "__wd_mult__": "1.0"
      }, 
      "inputs": []
    }, 
    {
      "op": "FullyConnected", 
      "name": "decoder_transformer_0_att_enc_h2o_fwd", 
      "attrs": {
        "flatten": "False", 
        "no_bias": "True", 
        "num_hidden": "32"
      }, 
      "inputs": [[291, 0, 0], [292, 0, 0]]
    }, 
    {
      "op": "Dropout", 
      "name": "decoder_transformer_0_att_enc_post_dropout0", 
      "attrs": {"p": "0.1"}, 
      "inputs": [[293, 0, 0]]
    }, 
    {
      "op": "elemwise_add", 
      "name": "decoder_transformer_0_att_enc_post__plus0", 
      "inputs": [[294, 0, 0], [53, 0, 0]]
    }, 
    {
      "op": "null", 
      "name": "decoder_transformer_0_ff_pre_norm_gamma", 
      "attrs": {
        "__dtype__": "0", 
        "__init__": "[\"constant\", {\"value\": 1.0}]", 
        "__lr_mult__": "1.0", 
        "__storage_type__": "0", 
        "__wd_mult__": "1.0"
      }, 
      "inputs": []
    }, 
    {
      "op": "null", 
      "name": "decoder_transformer_0_ff_pre_norm_beta", 
      "attrs": {
        "__dtype__": "0", 
        "__init__": "[\"constant\", {\"value\": 0.0}]", 
        "__lr_mult__": "1.0", 
        "__storage_type__": "0", 
        "__wd_mult__": "1.0"
      }, 
      "inputs": []
    }, 
    {
      "op": "LayerNorm", 
      "name": "decoder_transformer_0_ff_pre_normlayernorm0", 
      "attrs": {
        "axis": "-1", 
        "eps": "1e-06", 
        "output_mean_var": "False"
      }, 
      "inputs": [[295, 0, 0], [296, 0, 0], [297, 0, 0]]
    }, 
    {
      "op": "null", 
      "name": "decoder_transformer_0_ff_i2h_weight", 
      "attrs": {
        "__dtype__": "0", 
        "__lr_mult__": "1.0", 
        "__shape__": "(16, 0)", 
        "__storage_type__": "0", 
        "__wd_mult__": "1.0"
      }, 
      "inputs": []
    }, 
    {
      "op": "null", 
      "name": "decoder_transformer_0_ff_i2h_bias", 
      "attrs": {
        "__dtype__": "0", 
        "__init__": "zeros", 
        "__lr_mult__": "1.0", 
        "__shape__": "(16,)", 
        "__storage_type__": "0", 
        "__wd_mult__": "1.0"
      }, 
      "inputs": []
    }, 
    {
      "op": "FullyConnected", 
      "name": "decoder_transformer_0_ff_i2h_fwd", 
      "attrs": {
        "flatten": "False", 
        "no_bias": "False", 
        "num_hidden": "16"
      }, 
      "inputs": [[298, 0, 0], [299, 0, 0], [300, 0, 0]]
    }, 
    {
      "op": "Activation", 
      "name": "decoder_transformer_0_ff_relu0_fwd", 
      "attrs": {"act_type": "relu"}, 
      "inputs": [[301, 0, 0]]
    }, 
    {
      "op": "Dropout", 
      "name": "decoder_transformer_0_ff_dropout0", 
      "attrs": {"p": "0.1"}, 
      "inputs": [[302, 0, 0]]
    }, 
    {
      "op": "null", 
      "name": "decoder_transformer_0_ff_h2o_weight", 
      "attrs": {
        "__dtype__": "0", 
        "__lr_mult__": "1.0", 
        "__shape__": "(32, 0)", 
        "__storage_type__": "0", 
        "__wd_mult__": "1.0"
      }, 
      "inputs": []
    }, 
    {
      "op": "null", 
      "name": "decoder_transformer_0_ff_h2o_bias", 
      "attrs": {
        "__dtype__": "0", 
        "__init__": "zeros", 
        "__lr_mult__": "1.0", 
        "__shape__": "(32,)", 
        "__storage_type__": "0", 
        "__wd_mult__": "1.0"
      }, 
      "inputs": []
    }, 
    {
      "op": "FullyConnected", 
      "name": "decoder_transformer_0_ff_h2o_fwd", 
      "attrs": {
        "flatten": "False", 
        "no_bias": "False", 
        "num_hidden": "32"
      }, 
      "inputs": [[303, 0, 0], [304, 0, 0], [305, 0, 0]]
    }, 
    {
      "op": "Dropout", 
      "name": "decoder_transformer_0_ff_post_dropout0", 
      "attrs": {"p": "0.1"}, 
      "inputs": [[306, 0, 0]]
    }, 
    {
      "op": "elemwise_add", 
      "name": "decoder_transformer_0_ff_post__plus0", 
      "inputs": [[307, 0, 0], [295, 0, 0]]
    }, 
    {
      "op": "null", 
      "name": "decoder_transformer_1_att_self_pre_norm_gamma", 
      "attrs": {
        "__dtype__": "0", 
        "__init__": "[\"constant\", {\"value\": 1.0}]", 
        "__lr_mult__": "1.0", 
        "__storage_type__": "0", 
        "__wd_mult__": "1.0"
      }, 
      "inputs": []
    }, 
    {
      "op": "null", 
      "name": "decoder_transformer_1_att_self_pre_norm_beta", 
      "attrs": {
        "__dtype__": "0", 
        "__init__": "[\"constant\", {\"value\": 0.0}]", 
        "__lr_mult__": "1.0", 
        "__storage_type__": "0", 
        "__wd_mult__": "1.0"
      }, 
      "inputs": []
    }, 
    {
      "op": "LayerNorm", 
      "name": "decoder_transformer_1_att_self_pre_normlayernorm0", 
      "attrs": {
        "axis": "-1", 
        "eps": "1e-06", 
        "output_mean_var": "False"
      }, 
      "inputs": [[308, 0, 0], [309, 0, 0], [310, 0, 0]]
    }, 
    {
      "op": "null", 
      "name": "decoder_transformer_1_att_self_i2h_weight", 
      "attrs": {
        "__dtype__": "0", 
        "__lr_mult__": "1.0", 
        "__shape__": "(96, 0)", 
        "__storage_type__": "0", 
        "__wd_mult__": "1.0"
      }, 
      "inputs": []
    }, 
    {
      "op": "FullyConnected", 
      "name": "decoder_transformer_1_att_self_i2h_fwd", 
      "attrs": {
        "flatten": "False", 
        "no_bias": "True", 
        "num_hidden": "96"
      }, 
      "inputs": [[311, 0, 0], [312, 0, 0]]
    }, 
    {
      "op": "SliceChannel", 
      "name": "decoder_transformer_1_att_self_split0", 
      "attrs": {
        "axis": "2", 
        "num_outputs": "3"
      }, 
      "inputs": [[313, 0, 0]]
    }, 
    {
      "op": "_mul_scalar", 
      "name": "decoder_transformer_1_att_self__mulscalar0", 
      "attrs": {"scalar": "0.5"}, 
      "inputs": [[314, 0, 0]]
    }, 
    {
      "op": "Reshape", 
      "name": "decoder_transformer_1_att_self_reshape0", 
      "attrs": {"shape": "(0, -1, 8, 4)"}, 
      "inputs": [[315, 0, 0]]
    }, 
    {
      "op": "transpose", 
      "name": "decoder_transformer_1_att_self_transpose0", 
      "attrs": {"axes": "(0, 2, 1, 3)"}, 
      "inputs": [[316, 0, 0]]
    }, 
    {
      "op": "Reshape", 
      "name": "decoder_transformer_1_att_self_reshape1", 
      "attrs": {"shape": "(-3, -1, 4)"}, 
      "inputs": [[317, 0, 0]]
    }, 
    {
      "op": "Reshape", 
      "name": "decoder_transformer_1_att_self_reshape2", 
      "attrs": {"shape": "(0, -1, 8, 4)"}, 
      "inputs": [[314, 1, 0]]
    }, 
    {
      "op": "transpose", 
      "name": "decoder_transformer_1_att_self_transpose1", 
      "attrs": {"axes": "(0, 2, 1, 3)"}, 
      "inputs": [[319, 0, 0]]
    }, 
    {
      "op": "Reshape", 
      "name": "decoder_transformer_1_att_self_reshape3", 
      "attrs": {"shape": "(-3, -1, 4)"}, 
      "inputs": [[320, 0, 0]]
    }, 
    {
      "op": "batch_dot", 
      "name": "decoder_transformer_1_att_self_dot_attbatch_dot0", 
      "attrs": {"transpose_b": "True"}, 
      "inputs": [[318, 0, 0], [321, 0, 0]]
    }, 
    {
      "op": "broadcast_add", 
      "name": "decoder_transformer_1_att_self_dot_attbroadcast_add0", 
      "inputs": [[322, 0, 0], [39, 0, 0]]
    }, 
    {
      "op": "softmax", 
      "name": "decoder_transformer_1_att_self_dot_attsoftmax0", 
      "attrs": {"axis": "-1"}, 
      "inputs": [[323, 0, 0]]
    }, 
    {
      "op": "Dropout", 
      "name": "decoder_transformer_1_att_self_dot_attdropout0", 
      "attrs": {"p": "0.1"}, 
      "inputs": [[324, 0, 0]]
    }, 
    {
      "op": "Reshape", 
      "name": "decoder_transformer_1_att_self_reshape4", 
      "attrs": {"shape": "(0, -1, 8, 4)"}, 
      "inputs": [[314, 2, 0]]
    }, 
    {
      "op": "transpose", 
      "name": "decoder_transformer_1_att_self_transpose2", 
      "attrs": {"axes": "(0, 2, 1, 3)"}, 
      "inputs": [[326, 0, 0]]
    }, 
    {
      "op": "Reshape", 
      "name": "decoder_transformer_1_att_self_reshape5", 
      "attrs": {"shape": "(-3, -1, 4)"}, 
      "inputs": [[327, 0, 0]]
    }, 
    {
      "op": "batch_dot", 
      "name": "decoder_transformer_1_att_self_dot_attbatch_dot1", 
      "inputs": [[325, 0, 0], [328, 0, 0]]
    }, 
    {
      "op": "Reshape", 
      "name": "decoder_transformer_1_att_self_reshape6", 
      "attrs": {"shape": "(-4, -1, 8, 0, 4)"}, 
      "inputs": [[329, 0, 0]]
    }, 
    {
      "op": "transpose", 
      "name": "decoder_transformer_1_att_self_transpose3", 
      "attrs": {"axes": "(0, 2, 1, 3)"}, 
      "inputs": [[330, 0, 0]]
    }, 
    {
      "op": "Reshape", 
      "name": "decoder_transformer_1_att_self_reshape7", 
      "attrs": {"shape": "(-1, 0, 32)"}, 
      "inputs": [[331, 0, 0]]
    }, 
    {
      "op": "null", 
      "name": "decoder_transformer_1_att_self_h2o_weight", 
      "attrs": {
        "__dtype__": "0", 
        "__lr_mult__": "1.0", 
        "__shape__": "(32, 0)", 
        "__storage_type__": "0", 
        "__wd_mult__": "1.0"
      }, 
      "inputs": []
    }, 
    {
      "op": "FullyConnected", 
      "name": "decoder_transformer_1_att_self_h2o_fwd", 
      "attrs": {
        "flatten": "False", 
        "no_bias": "True", 
        "num_hidden": "32"
      }, 
      "inputs": [[332, 0, 0], [333, 0, 0]]
    }, 
    {
      "op": "Dropout", 
      "name": "decoder_transformer_1_att_self_post_dropout0", 
      "attrs": {"p": "0.1"}, 
      "inputs": [[334, 0, 0]]
    }, 
    {
      "op": "elemwise_add", 
      "name": "decoder_transformer_1_att_self_post__plus0", 
      "inputs": [[335, 0, 0], [308, 0, 0]]
    }, 
    {
      "op": "null", 
      "name": "decoder_transformer_1_att_enc_pre_norm_gamma", 
      "attrs": {
        "__dtype__": "0", 
        "__init__": "[\"constant\", {\"value\": 1.0}]", 
        "__lr_mult__": "1.0", 
        "__storage_type__": "0", 
        "__wd_mult__": "1.0"
      }, 
      "inputs": []
    }, 
    {
      "op": "null", 
      "name": "decoder_transformer_1_att_enc_pre_norm_beta", 
      "attrs": {
        "__dtype__": "0", 
        "__init__": "[\"constant\", {\"value\": 0.0}]", 
        "__lr_mult__": "1.0", 
        "__storage_type__": "0", 
        "__wd_mult__": "1.0"
      }, 
      "inputs": []
    }, 
    {
      "op": "LayerNorm", 
      "name": "decoder_transformer_1_att_enc_pre_normlayernorm0", 
      "attrs": {
        "axis": "-1", 
        "eps": "1e-06", 
        "output_mean_var": "False"
      }, 
      "inputs": [[336, 0, 0], [337, 0, 0], [338, 0, 0]]
    }, 
    {
      "op": "null", 
      "name": "decoder_transformer_1_att_enc_q2h_weight", 
      "attrs": {
        "__dtype__": "0", 
        "__lr_mult__": "1.0", 
        "__shape__": "(32, 0)", 
        "__storage_type__": "0", 
        "__wd_mult__": "1.0"
      }, 
      "inputs": []
    }, 
    {
      "op": "FullyConnected", 
      "name": "decoder_transformer_1_att_enc_q2h_fwd", 
      "attrs": {
        "flatten": "False", 
        "no_bias": "True", 
        "num_hidden": "32"
      }, 
      "inputs": [[339, 0, 0], [340, 0, 0]]
    }, 
    {
      "op": "_mul_scalar", 
      "name": "decoder_transformer_1_att_enc__mulscalar0", 
      "attrs": {"scalar": "0.5"}, 
      "inputs": [[341, 0, 0]]
    }, 
    {
      "op": "Reshape", 
      "name": "decoder_transformer_1_att_enc_reshape0", 
      "attrs": {"shape": "(0, -1, 8, 4)"}, 
      "inputs": [[342, 0, 0]]
    }, 
    {
      "op": "transpose", 
      "name": "decoder_transformer_1_att_enc_transpose0", 
      "attrs": {"axes": "(0, 2, 1, 3)"}, 
      "inputs": [[343, 0, 0]]
    }, 
    {
      "op": "Reshape", 
      "name": "decoder_transformer_1_att_enc_reshape1", 
      "attrs": {"shape": "(-3, -1, 4)"}, 
      "inputs": [[344, 0, 0]]
    }, 
    {
      "op": "null", 
      "name": "decoder_transformer_1_att_enc_k2h_weight", 
      "attrs": {
        "__dtype__": "0", 
        "__lr_mult__": "1.0", 
        "__shape__": "(32, 0)", 
        "__storage_type__": "0", 
        "__wd_mult__": "1.0"
      }, 
      "inputs": []
    }, 
    {
      "op": "FullyConnected", 
      "name": "decoder_transformer_1_att_enc_k2h_fwd", 
      "attrs": {
        "flatten": "False", 
        "no_bias": "True", 
        "num_hidden": "32"
      }, 
      "inputs": [[264, 0, 0], [346, 0, 0]]
    }, 
    {
      "op": "Reshape", 
      "name": "decoder_transformer_1_att_enc_reshape2", 
      "attrs": {"shape": "(0, -1, 8, 4)"}, 
      "inputs": [[347, 0, 0]]
    }, 
    {
      "op": "transpose", 
      "name": "decoder_transformer_1_att_enc_transpose1", 
      "attrs": {"axes": "(0, 2, 1, 3)"}, 
      "inputs": [[348, 0, 0]]
    }, 
    {
      "op": "Reshape", 
      "name": "decoder_transformer_1_att_enc_reshape3", 
      "attrs": {"shape": "(-3, -1, 4)"}, 
      "inputs": [[349, 0, 0]]
    }, 
    {
      "op": "batch_dot", 
      "name": "decoder_transformer_1_att_enc_dot_attbatch_dot0", 
      "attrs": {"transpose_b": "True"}, 
      "inputs": [[345, 0, 0], [350, 0, 0]]
    }, 
    {
      "op": "broadcast_add", 
      "name": "decoder_transformer_1_att_enc_dot_attbroadcast_add0", 
      "inputs": [[351, 0, 0], [279, 0, 0]]
    }, 
    {
      "op": "softmax", 
      "name": "decoder_transformer_1_att_enc_dot_attsoftmax0", 
      "attrs": {"axis": "-1"}, 
      "inputs": [[352, 0, 0]]
    }, 
    {
      "op": "Dropout", 
      "name": "decoder_transformer_1_att_enc_dot_attdropout0", 
      "attrs": {"p": "0.1"}, 
      "inputs": [[353, 0, 0]]
    }, 
    {
      "op": "null", 
      "name": "decoder_transformer_1_att_enc_v2h_weight", 
      "attrs": {
        "__dtype__": "0", 
        "__lr_mult__": "1.0", 
        "__shape__": "(32, 0)", 
        "__storage_type__": "0", 
        "__wd_mult__": "1.0"
      }, 
      "inputs": []
    }, 
    {
      "op": "FullyConnected", 
      "name": "decoder_transformer_1_att_enc_v2h_fwd", 
      "attrs": {
        "flatten": "False", 
        "no_bias": "True", 
        "num_hidden": "32"
      }, 
      "inputs": [[264, 0, 0], [355, 0, 0]]
    }, 
    {
      "op": "Reshape", 
      "name": "decoder_transformer_1_att_enc_reshape4", 
      "attrs": {"shape": "(0, -1, 8, 4)"}, 
      "inputs": [[356, 0, 0]]
    }, 
    {
      "op": "transpose", 
      "name": "decoder_transformer_1_att_enc_transpose2", 
      "attrs": {"axes": "(0, 2, 1, 3)"}, 
      "inputs": [[357, 0, 0]]
    }, 
    {
      "op": "Reshape", 
      "name": "decoder_transformer_1_att_enc_reshape5", 
      "attrs": {"shape": "(-3, -1, 4)"}, 
      "inputs": [[358, 0, 0]]
    }, 
    {
      "op": "batch_dot", 
      "name": "decoder_transformer_1_att_enc_dot_attbatch_dot1", 
      "inputs": [[354, 0, 0], [359, 0, 0]]
    }, 
    {
      "op": "Reshape", 
      "name": "decoder_transformer_1_att_enc_reshape6", 
      "attrs": {"shape": "(-4, -1, 8, 0, 4)"}, 
      "inputs": [[360, 0, 0]]
    }, 
    {
      "op": "transpose", 
      "name": "decoder_transformer_1_att_enc_transpose3", 
      "attrs": {"axes": "(0, 2, 1, 3)"}, 
      "inputs": [[361, 0, 0]]
    }, 
    {
      "op": "Reshape", 
      "name": "decoder_transformer_1_att_enc_reshape7", 
      "attrs": {"shape": "(-1, 0, 32)"}, 
      "inputs": [[362, 0, 0]]
    }, 
    {
      "op": "null", 
      "name": "decoder_transformer_1_att_enc_h2o_weight", 
      "attrs": {
        "__dtype__": "0", 
        "__lr_mult__": "1.0", 
        "__shape__": "(32, 0)", 
        "__storage_type__": "0", 
        "__wd_mult__": "1.0"
      }, 
      "inputs": []
    }, 
    {
      "op": "FullyConnected", 
      "name": "decoder_transformer_1_att_enc_h2o_fwd", 
      "attrs": {
        "flatten": "False", 
        "no_bias": "True", 
        "num_hidden": "32"
      }, 
      "inputs": [[363, 0, 0], [364, 0, 0]]
    }, 
    {
      "op": "Dropout", 
      "name": "decoder_transformer_1_att_enc_post_dropout0", 
      "attrs": {"p": "0.1"}, 
      "inputs": [[365, 0, 0]]
    }, 
    {
      "op": "elemwise_add", 
      "name": "decoder_transformer_1_att_enc_post__plus0", 
      "inputs": [[366, 0, 0], [336, 0, 0]]
    }, 
    {
      "op": "null", 
      "name": "decoder_transformer_1_ff_pre_norm_gamma", 
      "attrs": {
        "__dtype__": "0", 
        "__init__": "[\"constant\", {\"value\": 1.0}]", 
        "__lr_mult__": "1.0", 
        "__storage_type__": "0", 
        "__wd_mult__": "1.0"
      }, 
      "inputs": []
    }, 
    {
      "op": "null", 
      "name": "decoder_transformer_1_ff_pre_norm_beta", 
      "attrs": {
        "__dtype__": "0", 
        "__init__": "[\"constant\", {\"value\": 0.0}]", 
        "__lr_mult__": "1.0", 
        "__storage_type__": "0", 
        "__wd_mult__": "1.0"
      }, 
      "inputs": []
    }, 
    {
      "op": "LayerNorm", 
      "name": "decoder_transformer_1_ff_pre_normlayernorm0", 
      "attrs": {
        "axis": "-1", 
        "eps": "1e-06", 
        "output_mean_var": "False"
      }, 
      "inputs": [[367, 0, 0], [368, 0, 0], [369, 0, 0]]
    }, 
    {
      "op": "null", 
      "name": "decoder_transformer_1_ff_i2h_weight", 
      "attrs": {
        "__dtype__": "0", 
        "__lr_mult__": "1.0", 
        "__shape__": "(16, 0)", 
        "__storage_type__": "0", 
        "__wd_mult__": "1.0"
      }, 
      "inputs": []
    }, 
    {
      "op": "null", 
      "name": "decoder_transformer_1_ff_i2h_bias", 
      "attrs": {
        "__dtype__": "0", 
        "__init__": "zeros", 
        "__lr_mult__": "1.0", 
        "__shape__": "(16,)", 
        "__storage_type__": "0", 
        "__wd_mult__": "1.0"
      }, 
      "inputs": []
    }, 
    {
      "op": "FullyConnected", 
      "name": "decoder_transformer_1_ff_i2h_fwd", 
      "attrs": {
        "flatten": "False", 
        "no_bias": "False", 
        "num_hidden": "16"
      }, 
      "inputs": [[370, 0, 0], [371, 0, 0], [372, 0, 0]]
    }, 
    {
      "op": "Activation", 
      "name": "decoder_transformer_1_ff_relu0_fwd", 
      "attrs": {"act_type": "relu"}, 
      "inputs": [[373, 0, 0]]
    }, 
    {
      "op": "Dropout", 
      "name": "decoder_transformer_1_ff_dropout0", 
      "attrs": {"p": "0.1"}, 
      "inputs": [[374, 0, 0]]
    }, 
    {
      "op": "null", 
      "name": "decoder_transformer_1_ff_h2o_weight", 
      "attrs": {
        "__dtype__": "0", 
        "__lr_mult__": "1.0", 
        "__shape__": "(32, 0)", 
        "__storage_type__": "0", 
        "__wd_mult__": "1.0"
      }, 
      "inputs": []
    }, 
    {
      "op": "null", 
      "name": "decoder_transformer_1_ff_h2o_bias", 
      "attrs": {
        "__dtype__": "0", 
        "__init__": "zeros", 
        "__lr_mult__": "1.0", 
        "__shape__": "(32,)", 
        "__storage_type__": "0", 
        "__wd_mult__": "1.0"
      }, 
      "inputs": []
    }, 
    {
      "op": "FullyConnected", 
      "name": "decoder_transformer_1_ff_h2o_fwd", 
      "attrs": {
        "flatten": "False", 
        "no_bias": "False", 
        "num_hidden": "32"
      }, 
      "inputs": [[375, 0, 0], [376, 0, 0], [377, 0, 0]]
    }, 
    {
      "op": "Dropout", 
      "name": "decoder_transformer_1_ff_post_dropout0", 
      "attrs": {"p": "0.1"}, 
      "inputs": [[378, 0, 0]]
    }, 
    {
      "op": "elemwise_add", 
      "name": "decoder_transformer_1_ff_post__plus0", 
      "inputs": [[379, 0, 0], [367, 0, 0]]
    }, 
    {
      "op": "null", 
      "name": "decoder_transformer_2_att_self_pre_norm_gamma", 
      "attrs": {
        "__dtype__": "0", 
        "__init__": "[\"constant\", {\"value\": 1.0}]", 
        "__lr_mult__": "1.0", 
        "__storage_type__": "0", 
        "__wd_mult__": "1.0"
      }, 
      "inputs": []
    }, 
    {
      "op": "null", 
      "name": "decoder_transformer_2_att_self_pre_norm_beta", 
      "attrs": {
        "__dtype__": "0", 
        "__init__": "[\"constant\", {\"value\": 0.0}]", 
        "__lr_mult__": "1.0", 
        "__storage_type__": "0", 
        "__wd_mult__": "1.0"
      }, 
      "inputs": []
    }, 
    {
      "op": "LayerNorm", 
      "name": "decoder_transformer_2_att_self_pre_normlayernorm0", 
      "attrs": {
        "axis": "-1", 
        "eps": "1e-06", 
        "output_mean_var": "False"
      }, 
      "inputs": [[380, 0, 0], [381, 0, 0], [382, 0, 0]]
    }, 
    {
      "op": "null", 
      "name": "decoder_transformer_2_att_self_i2h_weight", 
      "attrs": {
        "__dtype__": "0", 
        "__lr_mult__": "1.0", 
        "__shape__": "(96, 0)", 
        "__storage_type__": "0", 
        "__wd_mult__": "1.0"
      }, 
      "inputs": []
    }, 
    {
      "op": "FullyConnected", 
      "name": "decoder_transformer_2_att_self_i2h_fwd", 
      "attrs": {
        "flatten": "False", 
        "no_bias": "True", 
        "num_hidden": "96"
      }, 
      "inputs": [[383, 0, 0], [384, 0, 0]]
    }, 
    {
      "op": "SliceChannel", 
      "name": "decoder_transformer_2_att_self_split0", 
      "attrs": {
        "axis": "2", 
        "num_outputs": "3"
      }, 
      "inputs": [[385, 0, 0]]
    }, 
    {
      "op": "_mul_scalar", 
      "name": "decoder_transformer_2_att_self__mulscalar0", 
      "attrs": {"scalar": "0.5"}, 
      "inputs": [[386, 0, 0]]
    }, 
    {
      "op": "Reshape", 
      "name": "decoder_transformer_2_att_self_reshape0", 
      "attrs": {"shape": "(0, -1, 8, 4)"}, 
      "inputs": [[387, 0, 0]]
    }, 
    {
      "op": "transpose", 
      "name": "decoder_transformer_2_att_self_transpose0", 
      "attrs": {"axes": "(0, 2, 1, 3)"}, 
      "inputs": [[388, 0, 0]]
    }, 
    {
      "op": "Reshape", 
      "name": "decoder_transformer_2_att_self_reshape1", 
      "attrs": {"shape": "(-3, -1, 4)"}, 
      "inputs": [[389, 0, 0]]
    }, 
    {
      "op": "Reshape", 
      "name": "decoder_transformer_2_att_self_reshape2", 
      "attrs": {"shape": "(0, -1, 8, 4)"}, 
      "inputs": [[386, 1, 0]]
    }, 
    {
      "op": "transpose", 
      "name": "decoder_transformer_2_att_self_transpose1", 
      "attrs": {"axes": "(0, 2, 1, 3)"}, 
      "inputs": [[391, 0, 0]]
    }, 
    {
      "op": "Reshape", 
      "name": "decoder_transformer_2_att_self_reshape3", 
      "attrs": {"shape": "(-3, -1, 4)"}, 
      "inputs": [[392, 0, 0]]
    }, 
    {
      "op": "batch_dot", 
      "name": "decoder_transformer_2_att_self_dot_attbatch_dot0", 
      "attrs": {"transpose_b": "True"}, 
      "inputs": [[390, 0, 0], [393, 0, 0]]
    }, 
    {
      "op": "broadcast_add", 
      "name": "decoder_transformer_2_att_self_dot_attbroadcast_add0", 
      "inputs": [[394, 0, 0], [39, 0, 0]]
    }, 
    {
      "op": "softmax", 
      "name": "decoder_transformer_2_att_self_dot_attsoftmax0", 
      "attrs": {"axis": "-1"}, 
      "inputs": [[395, 0, 0]]
    }, 
    {
      "op": "Dropout", 
      "name": "decoder_transformer_2_att_self_dot_attdropout0", 
      "attrs": {"p": "0.1"}, 
      "inputs": [[396, 0, 0]]
    }, 
    {
      "op": "Reshape", 
      "name": "decoder_transformer_2_att_self_reshape4", 
      "attrs": {"shape": "(0, -1, 8, 4)"}, 
      "inputs": [[386, 2, 0]]
    }, 
    {
      "op": "transpose", 
      "name": "decoder_transformer_2_att_self_transpose2", 
      "attrs": {"axes": "(0, 2, 1, 3)"}, 
      "inputs": [[398, 0, 0]]
    }, 
    {
      "op": "Reshape", 
      "name": "decoder_transformer_2_att_self_reshape5", 
      "attrs": {"shape": "(-3, -1, 4)"}, 
      "inputs": [[399, 0, 0]]
    }, 
    {
      "op": "batch_dot", 
      "name": "decoder_transformer_2_att_self_dot_attbatch_dot1", 
      "inputs": [[397, 0, 0], [400, 0, 0]]
    }, 
    {
      "op": "Reshape", 
      "name": "decoder_transformer_2_att_self_reshape6", 
      "attrs": {"shape": "(-4, -1, 8, 0, 4)"}, 
      "inputs": [[401, 0, 0]]
    }, 
    {
      "op": "transpose", 
      "name": "decoder_transformer_2_att_self_transpose3", 
      "attrs": {"axes": "(0, 2, 1, 3)"}, 
      "inputs": [[402, 0, 0]]
    }, 
    {
      "op": "Reshape", 
      "name": "decoder_transformer_2_att_self_reshape7", 
      "attrs": {"shape": "(-1, 0, 32)"}, 
      "inputs": [[403, 0, 0]]
    }, 
    {
      "op": "null", 
      "name": "decoder_transformer_2_att_self_h2o_weight", 
      "attrs": {
        "__dtype__": "0", 
        "__lr_mult__": "1.0", 
        "__shape__": "(32, 0)", 
        "__storage_type__": "0", 
        "__wd_mult__": "1.0"
      }, 
      "inputs": []
    }, 
    {
      "op": "FullyConnected", 
      "name": "decoder_transformer_2_att_self_h2o_fwd", 
      "attrs": {
        "flatten": "False", 
        "no_bias": "True", 
        "num_hidden": "32"
      }, 
      "inputs": [[404, 0, 0], [405, 0, 0]]
    }, 
    {
      "op": "Dropout", 
      "name": "decoder_transformer_2_att_self_post_dropout0", 
      "attrs": {"p": "0.1"}, 
      "inputs": [[406, 0, 0]]
    }, 
    {
      "op": "elemwise_add", 
      "name": "decoder_transformer_2_att_self_post__plus0", 
      "inputs": [[407, 0, 0], [380, 0, 0]]
    }, 
    {
      "op": "null", 
      "name": "decoder_transformer_2_att_enc_pre_norm_gamma", 
      "attrs": {
        "__dtype__": "0", 
        "__init__": "[\"constant\", {\"value\": 1.0}]", 
        "__lr_mult__": "1.0", 
        "__storage_type__": "0", 
        "__wd_mult__": "1.0"
      }, 
      "inputs": []
    }, 
    {
      "op": "null", 
      "name": "decoder_transformer_2_att_enc_pre_norm_beta", 
      "attrs": {
        "__dtype__": "0", 
        "__init__": "[\"constant\", {\"value\": 0.0}]", 
        "__lr_mult__": "1.0", 
        "__storage_type__": "0", 
        "__wd_mult__": "1.0"
      }, 
      "inputs": []
    }, 
    {
      "op": "LayerNorm", 
      "name": "decoder_transformer_2_att_enc_pre_normlayernorm0", 
      "attrs": {
        "axis": "-1", 
        "eps": "1e-06", 
        "output_mean_var": "False"
      }, 
      "inputs": [[408, 0, 0], [409, 0, 0], [410, 0, 0]]
    }, 
    {
      "op": "null", 
      "name": "decoder_transformer_2_att_enc_q2h_weight", 
      "attrs": {
        "__dtype__": "0", 
        "__lr_mult__": "1.0", 
        "__shape__": "(32, 0)", 
        "__storage_type__": "0", 
        "__wd_mult__": "1.0"
      }, 
      "inputs": []
    }, 
    {
      "op": "FullyConnected", 
      "name": "decoder_transformer_2_att_enc_q2h_fwd", 
      "attrs": {
        "flatten": "False", 
        "no_bias": "True", 
        "num_hidden": "32"
      }, 
      "inputs": [[411, 0, 0], [412, 0, 0]]
    }, 
    {
      "op": "_mul_scalar", 
      "name": "decoder_transformer_2_att_enc__mulscalar0", 
      "attrs": {"scalar": "0.5"}, 
      "inputs": [[413, 0, 0]]
    }, 
    {
      "op": "Reshape", 
      "name": "decoder_transformer_2_att_enc_reshape0", 
      "attrs": {"shape": "(0, -1, 8, 4)"}, 
      "inputs": [[414, 0, 0]]
    }, 
    {
      "op": "transpose", 
      "name": "decoder_transformer_2_att_enc_transpose0", 
      "attrs": {"axes": "(0, 2, 1, 3)"}, 
      "inputs": [[415, 0, 0]]
    }, 
    {
      "op": "Reshape", 
      "name": "decoder_transformer_2_att_enc_reshape1", 
      "attrs": {"shape": "(-3, -1, 4)"}, 
      "inputs": [[416, 0, 0]]
    }, 
    {
      "op": "null", 
      "name": "decoder_transformer_2_att_enc_k2h_weight", 
      "attrs": {
        "__dtype__": "0", 
        "__lr_mult__": "1.0", 
        "__shape__": "(32, 0)", 
        "__storage_type__": "0", 
        "__wd_mult__": "1.0"
      }, 
      "inputs": []
    }, 
    {
      "op": "FullyConnected", 
      "name": "decoder_transformer_2_att_enc_k2h_fwd", 
      "attrs": {
        "flatten": "False", 
        "no_bias": "True", 
        "num_hidden": "32"
      }, 
      "inputs": [[264, 0, 0], [418, 0, 0]]
    }, 
    {
      "op": "Reshape", 
      "name": "decoder_transformer_2_att_enc_reshape2", 
      "attrs": {"shape": "(0, -1, 8, 4)"}, 
      "inputs": [[419, 0, 0]]
    }, 
    {
      "op": "transpose", 
      "name": "decoder_transformer_2_att_enc_transpose1", 
      "attrs": {"axes": "(0, 2, 1, 3)"}, 
      "inputs": [[420, 0, 0]]
    }, 
    {
      "op": "Reshape", 
      "name": "decoder_transformer_2_att_enc_reshape3", 
      "attrs": {"shape": "(-3, -1, 4)"}, 
      "inputs": [[421, 0, 0]]
    }, 
    {
      "op": "batch_dot", 
      "name": "decoder_transformer_2_att_enc_dot_attbatch_dot0", 
      "attrs": {"transpose_b": "True"}, 
      "inputs": [[417, 0, 0], [422, 0, 0]]
    }, 
    {
      "op": "broadcast_add", 
      "name": "decoder_transformer_2_att_enc_dot_attbroadcast_add0", 
      "inputs": [[423, 0, 0], [279, 0, 0]]
    }, 
    {
      "op": "softmax", 
      "name": "decoder_transformer_2_att_enc_dot_attsoftmax0", 
      "attrs": {"axis": "-1"}, 
      "inputs": [[424, 0, 0]]
    }, 
    {
      "op": "Dropout", 
      "name": "decoder_transformer_2_att_enc_dot_attdropout0", 
      "attrs": {"p": "0.1"}, 
      "inputs": [[425, 0, 0]]
    }, 
    {
      "op": "null", 
      "name": "decoder_transformer_2_att_enc_v2h_weight", 
      "attrs": {
        "__dtype__": "0", 
        "__lr_mult__": "1.0", 
        "__shape__": "(32, 0)", 
        "__storage_type__": "0", 
        "__wd_mult__": "1.0"
      }, 
      "inputs": []
    }, 
    {
      "op": "FullyConnected", 
      "name": "decoder_transformer_2_att_enc_v2h_fwd", 
      "attrs": {
        "flatten": "False", 
        "no_bias": "True", 
        "num_hidden": "32"
      }, 
      "inputs": [[264, 0, 0], [427, 0, 0]]
    }, 
    {
      "op": "Reshape", 
      "name": "decoder_transformer_2_att_enc_reshape4", 
      "attrs": {"shape": "(0, -1, 8, 4)"}, 
      "inputs": [[428, 0, 0]]
    }, 
    {
      "op": "transpose", 
      "name": "decoder_transformer_2_att_enc_transpose2", 
      "attrs": {"axes": "(0, 2, 1, 3)"}, 
      "inputs": [[429, 0, 0]]
    }, 
    {
      "op": "Reshape", 
      "name": "decoder_transformer_2_att_enc_reshape5", 
      "attrs": {"shape": "(-3, -1, 4)"}, 
      "inputs": [[430, 0, 0]]
    }, 
    {
      "op": "batch_dot", 
      "name": "decoder_transformer_2_att_enc_dot_attbatch_dot1", 
      "inputs": [[426, 0, 0], [431, 0, 0]]
    }, 
    {
      "op": "Reshape", 
      "name": "decoder_transformer_2_att_enc_reshape6", 
      "attrs": {"shape": "(-4, -1, 8, 0, 4)"}, 
      "inputs": [[432, 0, 0]]
    }, 
    {
      "op": "transpose", 
      "name": "decoder_transformer_2_att_enc_transpose3", 
      "attrs": {"axes": "(0, 2, 1, 3)"}, 
      "inputs": [[433, 0, 0]]
    }, 
    {
      "op": "Reshape", 
      "name": "decoder_transformer_2_att_enc_reshape7", 
      "attrs": {"shape": "(-1, 0, 32)"}, 
      "inputs": [[434, 0, 0]]
    }, 
    {
      "op": "null", 
      "name": "decoder_transformer_2_att_enc_h2o_weight", 
      "attrs": {
        "__dtype__": "0", 
        "__lr_mult__": "1.0", 
        "__shape__": "(32, 0)", 
        "__storage_type__": "0", 
        "__wd_mult__": "1.0"
      }, 
      "inputs": []
    }, 
    {
      "op": "FullyConnected", 
      "name": "decoder_transformer_2_att_enc_h2o_fwd", 
      "attrs": {
        "flatten": "False", 
        "no_bias": "True", 
        "num_hidden": "32"
      }, 
      "inputs": [[435, 0, 0], [436, 0, 0]]
    }, 
    {
      "op": "Dropout", 
      "name": "decoder_transformer_2_att_enc_post_dropout0", 
      "attrs": {"p": "0.1"}, 
      "inputs": [[437, 0, 0]]
    }, 
    {
      "op": "elemwise_add", 
      "name": "decoder_transformer_2_att_enc_post__plus0", 
      "inputs": [[438, 0, 0], [408, 0, 0]]
    }, 
    {
      "op": "null", 
      "name": "decoder_transformer_2_ff_pre_norm_gamma", 
      "attrs": {
        "__dtype__": "0", 
        "__init__": "[\"constant\", {\"value\": 1.0}]", 
        "__lr_mult__": "1.0", 
        "__storage_type__": "0", 
        "__wd_mult__": "1.0"
      }, 
      "inputs": []
    }, 
    {
      "op": "null", 
      "name": "decoder_transformer_2_ff_pre_norm_beta", 
      "attrs": {
        "__dtype__": "0", 
        "__init__": "[\"constant\", {\"value\": 0.0}]", 
        "__lr_mult__": "1.0", 
        "__storage_type__": "0", 
        "__wd_mult__": "1.0"
      }, 
      "inputs": []
    }, 
    {
      "op": "LayerNorm", 
      "name": "decoder_transformer_2_ff_pre_normlayernorm0", 
      "attrs": {
        "axis": "-1", 
        "eps": "1e-06", 
        "output_mean_var": "False"
      }, 
      "inputs": [[439, 0, 0], [440, 0, 0], [441, 0, 0]]
    }, 
    {
      "op": "null", 
      "name": "decoder_transformer_2_ff_i2h_weight", 
      "attrs": {
        "__dtype__": "0", 
        "__lr_mult__": "1.0", 
        "__shape__": "(16, 0)", 
        "__storage_type__": "0", 
        "__wd_mult__": "1.0"
      }, 
      "inputs": []
    }, 
    {
      "op": "null", 
      "name": "decoder_transformer_2_ff_i2h_bias", 
      "attrs": {
        "__dtype__": "0", 
        "__init__": "zeros", 
        "__lr_mult__": "1.0", 
        "__shape__": "(16,)", 
        "__storage_type__": "0", 
        "__wd_mult__": "1.0"
      }, 
      "inputs": []
    }, 
    {
      "op": "FullyConnected", 
      "name": "decoder_transformer_2_ff_i2h_fwd", 
      "attrs": {
        "flatten": "False", 
        "no_bias": "False", 
        "num_hidden": "16"
      }, 
      "inputs": [[442, 0, 0], [443, 0, 0], [444, 0, 0]]
    }, 
    {
      "op": "Activation", 
      "name": "decoder_transformer_2_ff_relu0_fwd", 
      "attrs": {"act_type": "relu"}, 
      "inputs": [[445, 0, 0]]
    }, 
    {
      "op": "Dropout", 
      "name": "decoder_transformer_2_ff_dropout0", 
      "attrs": {"p": "0.1"}, 
      "inputs": [[446, 0, 0]]
    }, 
    {
      "op": "null", 
      "name": "decoder_transformer_2_ff_h2o_weight", 
      "attrs": {
        "__dtype__": "0", 
        "__lr_mult__": "1.0", 
        "__shape__": "(32, 0)", 
        "__storage_type__": "0", 
        "__wd_mult__": "1.0"
      }, 
      "inputs": []
    }, 
    {
      "op": "null", 
      "name": "decoder_transformer_2_ff_h2o_bias", 
      "attrs": {
        "__dtype__": "0", 
        "__init__": "zeros", 
        "__lr_mult__": "1.0", 
        "__shape__": "(32,)", 
        "__storage_type__": "0", 
        "__wd_mult__": "1.0"
      }, 
      "inputs": []
    }, 
    {
      "op": "FullyConnected", 
      "name": "decoder_transformer_2_ff_h2o_fwd", 
      "attrs": {
        "flatten": "False", 
        "no_bias": "False", 
        "num_hidden": "32"
      }, 
      "inputs": [[447, 0, 0], [448, 0, 0], [449, 0, 0]]
    }, 
    {
      "op": "Dropout", 
      "name": "decoder_transformer_2_ff_post_dropout0", 
      "attrs": {"p": "0.1"}, 
      "inputs": [[450, 0, 0]]
    }, 
    {
      "op": "elemwise_add", 
      "name": "decoder_transformer_2_ff_post__plus0", 
      "inputs": [[451, 0, 0], [439, 0, 0]]
    }, 
    {
      "op": "null", 
      "name": "decoder_transformer_3_att_self_pre_norm_gamma", 
      "attrs": {
        "__dtype__": "0", 
        "__init__": "[\"constant\", {\"value\": 1.0}]", 
        "__lr_mult__": "1.0", 
        "__storage_type__": "0", 
        "__wd_mult__": "1.0"
      }, 
      "inputs": []
    }, 
    {
      "op": "null", 
      "name": "decoder_transformer_3_att_self_pre_norm_beta", 
      "attrs": {
        "__dtype__": "0", 
        "__init__": "[\"constant\", {\"value\": 0.0}]", 
        "__lr_mult__": "1.0", 
        "__storage_type__": "0", 
        "__wd_mult__": "1.0"
      }, 
      "inputs": []
    }, 
    {
      "op": "LayerNorm", 
      "name": "decoder_transformer_3_att_self_pre_normlayernorm0", 
      "attrs": {
        "axis": "-1", 
        "eps": "1e-06", 
        "output_mean_var": "False"
      }, 
      "inputs": [[452, 0, 0], [453, 0, 0], [454, 0, 0]]
    }, 
    {
      "op": "null", 
      "name": "decoder_transformer_3_att_self_i2h_weight", 
      "attrs": {
        "__dtype__": "0", 
        "__lr_mult__": "1.0", 
        "__shape__": "(96, 0)", 
        "__storage_type__": "0", 
        "__wd_mult__": "1.0"
      }, 
      "inputs": []
    }, 
    {
      "op": "FullyConnected", 
      "name": "decoder_transformer_3_att_self_i2h_fwd", 
      "attrs": {
        "flatten": "False", 
        "no_bias": "True", 
        "num_hidden": "96"
      }, 
      "inputs": [[455, 0, 0], [456, 0, 0]]
    }, 
    {
      "op": "SliceChannel", 
      "name": "decoder_transformer_3_att_self_split0", 
      "attrs": {
        "axis": "2", 
        "num_outputs": "3"
      }, 
      "inputs": [[457, 0, 0]]
    }, 
    {
      "op": "_mul_scalar", 
      "name": "decoder_transformer_3_att_self__mulscalar0", 
      "attrs": {"scalar": "0.5"}, 
      "inputs": [[458, 0, 0]]
    }, 
    {
      "op": "Reshape", 
      "name": "decoder_transformer_3_att_self_reshape0", 
      "attrs": {"shape": "(0, -1, 8, 4)"}, 
      "inputs": [[459, 0, 0]]
    }, 
    {
      "op": "transpose", 
      "name": "decoder_transformer_3_att_self_transpose0", 
      "attrs": {"axes": "(0, 2, 1, 3)"}, 
      "inputs": [[460, 0, 0]]
    }, 
    {
      "op": "Reshape", 
      "name": "decoder_transformer_3_att_self_reshape1", 
      "attrs": {"shape": "(-3, -1, 4)"}, 
      "inputs": [[461, 0, 0]]
    }, 
    {
      "op": "Reshape", 
      "name": "decoder_transformer_3_att_self_reshape2", 
      "attrs": {"shape": "(0, -1, 8, 4)"}, 
      "inputs": [[458, 1, 0]]
    }, 
    {
      "op": "transpose", 
      "name": "decoder_transformer_3_att_self_transpose1", 
      "attrs": {"axes": "(0, 2, 1, 3)"}, 
      "inputs": [[463, 0, 0]]
    }, 
    {
      "op": "Reshape", 
      "name": "decoder_transformer_3_att_self_reshape3", 
      "attrs": {"shape": "(-3, -1, 4)"}, 
      "inputs": [[464, 0, 0]]
    }, 
    {
      "op": "batch_dot", 
      "name": "decoder_transformer_3_att_self_dot_attbatch_dot0", 
      "attrs": {"transpose_b": "True"}, 
      "inputs": [[462, 0, 0], [465, 0, 0]]
    }, 
    {
      "op": "broadcast_add", 
      "name": "decoder_transformer_3_att_self_dot_attbroadcast_add0", 
      "inputs": [[466, 0, 0], [39, 0, 0]]
    }, 
    {
      "op": "softmax", 
      "name": "decoder_transformer_3_att_self_dot_attsoftmax0", 
      "attrs": {"axis": "-1"}, 
      "inputs": [[467, 0, 0]]
    }, 
    {
      "op": "Dropout", 
      "name": "decoder_transformer_3_att_self_dot_attdropout0", 
      "attrs": {"p": "0.1"}, 
      "inputs": [[468, 0, 0]]
    }, 
    {
      "op": "Reshape", 
      "name": "decoder_transformer_3_att_self_reshape4", 
      "attrs": {"shape": "(0, -1, 8, 4)"}, 
      "inputs": [[458, 2, 0]]
    }, 
    {
      "op": "transpose", 
      "name": "decoder_transformer_3_att_self_transpose2", 
      "attrs": {"axes": "(0, 2, 1, 3)"}, 
      "inputs": [[470, 0, 0]]
    }, 
    {
      "op": "Reshape", 
      "name": "decoder_transformer_3_att_self_reshape5", 
      "attrs": {"shape": "(-3, -1, 4)"}, 
      "inputs": [[471, 0, 0]]
    }, 
    {
      "op": "batch_dot", 
      "name": "decoder_transformer_3_att_self_dot_attbatch_dot1", 
      "inputs": [[469, 0, 0], [472, 0, 0]]
    }, 
    {
      "op": "Reshape", 
      "name": "decoder_transformer_3_att_self_reshape6", 
      "attrs": {"shape": "(-4, -1, 8, 0, 4)"}, 
      "inputs": [[473, 0, 0]]
    }, 
    {
      "op": "transpose", 
      "name": "decoder_transformer_3_att_self_transpose3", 
      "attrs": {"axes": "(0, 2, 1, 3)"}, 
      "inputs": [[474, 0, 0]]
    }, 
    {
      "op": "Reshape", 
      "name": "decoder_transformer_3_att_self_reshape7", 
      "attrs": {"shape": "(-1, 0, 32)"}, 
      "inputs": [[475, 0, 0]]
    }, 
    {
      "op": "null", 
      "name": "decoder_transformer_3_att_self_h2o_weight", 
      "attrs": {
        "__dtype__": "0", 
        "__lr_mult__": "1.0", 
        "__shape__": "(32, 0)", 
        "__storage_type__": "0", 
        "__wd_mult__": "1.0"
      }, 
      "inputs": []
    }, 
    {
      "op": "FullyConnected", 
      "name": "decoder_transformer_3_att_self_h2o_fwd", 
      "attrs": {
        "flatten": "False", 
        "no_bias": "True", 
        "num_hidden": "32"
      }, 
      "inputs": [[476, 0, 0], [477, 0, 0]]
    }, 
    {
      "op": "Dropout", 
      "name": "decoder_transformer_3_att_self_post_dropout0", 
      "attrs": {"p": "0.1"}, 
      "inputs": [[478, 0, 0]]
    }, 
    {
      "op": "elemwise_add", 
      "name": "decoder_transformer_3_att_self_post__plus0", 
      "inputs": [[479, 0, 0], [452, 0, 0]]
    }, 
    {
      "op": "null", 
      "name": "decoder_transformer_3_att_enc_pre_norm_gamma", 
      "attrs": {
        "__dtype__": "0", 
        "__init__": "[\"constant\", {\"value\": 1.0}]", 
        "__lr_mult__": "1.0", 
        "__storage_type__": "0", 
        "__wd_mult__": "1.0"
      }, 
      "inputs": []
    }, 
    {
      "op": "null", 
      "name": "decoder_transformer_3_att_enc_pre_norm_beta", 
      "attrs": {
        "__dtype__": "0", 
        "__init__": "[\"constant\", {\"value\": 0.0}]", 
        "__lr_mult__": "1.0", 
        "__storage_type__": "0", 
        "__wd_mult__": "1.0"
      }, 
      "inputs": []
    }, 
    {
      "op": "LayerNorm", 
      "name": "decoder_transformer_3_att_enc_pre_normlayernorm0", 
      "attrs": {
        "axis": "-1", 
        "eps": "1e-06", 
        "output_mean_var": "False"
      }, 
      "inputs": [[480, 0, 0], [481, 0, 0], [482, 0, 0]]
    }, 
    {
      "op": "null", 
      "name": "decoder_transformer_3_att_enc_q2h_weight", 
      "attrs": {
        "__dtype__": "0", 
        "__lr_mult__": "1.0", 
        "__shape__": "(32, 0)", 
        "__storage_type__": "0", 
        "__wd_mult__": "1.0"
      }, 
      "inputs": []
    }, 
    {
      "op": "FullyConnected", 
      "name": "decoder_transformer_3_att_enc_q2h_fwd", 
      "attrs": {
        "flatten": "False", 
        "no_bias": "True", 
        "num_hidden": "32"
      }, 
      "inputs": [[483, 0, 0], [484, 0, 0]]
    }, 
    {
      "op": "_mul_scalar", 
      "name": "decoder_transformer_3_att_enc__mulscalar0", 
      "attrs": {"scalar": "0.5"}, 
      "inputs": [[485, 0, 0]]
    }, 
    {
      "op": "Reshape", 
      "name": "decoder_transformer_3_att_enc_reshape0", 
      "attrs": {"shape": "(0, -1, 8, 4)"}, 
      "inputs": [[486, 0, 0]]
    }, 
    {
      "op": "transpose", 
      "name": "decoder_transformer_3_att_enc_transpose0", 
      "attrs": {"axes": "(0, 2, 1, 3)"}, 
      "inputs": [[487, 0, 0]]
    }, 
    {
      "op": "Reshape", 
      "name": "decoder_transformer_3_att_enc_reshape1", 
      "attrs": {"shape": "(-3, -1, 4)"}, 
      "inputs": [[488, 0, 0]]
    }, 
    {
      "op": "null", 
      "name": "decoder_transformer_3_att_enc_k2h_weight", 
      "attrs": {
        "__dtype__": "0", 
        "__lr_mult__": "1.0", 
        "__shape__": "(32, 0)", 
        "__storage_type__": "0", 
        "__wd_mult__": "1.0"
      }, 
      "inputs": []
    }, 
    {
      "op": "FullyConnected", 
      "name": "decoder_transformer_3_att_enc_k2h_fwd", 
      "attrs": {
        "flatten": "False", 
        "no_bias": "True", 
        "num_hidden": "32"
      }, 
      "inputs": [[264, 0, 0], [490, 0, 0]]
    }, 
    {
      "op": "Reshape", 
      "name": "decoder_transformer_3_att_enc_reshape2", 
      "attrs": {"shape": "(0, -1, 8, 4)"}, 
      "inputs": [[491, 0, 0]]
    }, 
    {
      "op": "transpose", 
      "name": "decoder_transformer_3_att_enc_transpose1", 
      "attrs": {"axes": "(0, 2, 1, 3)"}, 
      "inputs": [[492, 0, 0]]
    }, 
    {
      "op": "Reshape", 
      "name": "decoder_transformer_3_att_enc_reshape3", 
      "attrs": {"shape": "(-3, -1, 4)"}, 
      "inputs": [[493, 0, 0]]
    }, 
    {
      "op": "batch_dot", 
      "name": "decoder_transformer_3_att_enc_dot_attbatch_dot0", 
      "attrs": {"transpose_b": "True"}, 
      "inputs": [[489, 0, 0], [494, 0, 0]]
    }, 
    {
      "op": "broadcast_add", 
      "name": "decoder_transformer_3_att_enc_dot_attbroadcast_add0", 
      "inputs": [[495, 0, 0], [279, 0, 0]]
    }, 
    {
      "op": "softmax", 
      "name": "decoder_transformer_3_att_enc_dot_attsoftmax0", 
      "attrs": {"axis": "-1"}, 
      "inputs": [[496, 0, 0]]
    }, 
    {
      "op": "Dropout", 
      "name": "decoder_transformer_3_att_enc_dot_attdropout0", 
      "attrs": {"p": "0.1"}, 
      "inputs": [[497, 0, 0]]
    }, 
    {
      "op": "null", 
      "name": "decoder_transformer_3_att_enc_v2h_weight", 
      "attrs": {
        "__dtype__": "0", 
        "__lr_mult__": "1.0", 
        "__shape__": "(32, 0)", 
        "__storage_type__": "0", 
        "__wd_mult__": "1.0"
      }, 
      "inputs": []
    }, 
    {
      "op": "FullyConnected", 
      "name": "decoder_transformer_3_att_enc_v2h_fwd", 
      "attrs": {
        "flatten": "False", 
        "no_bias": "True", 
        "num_hidden": "32"
      }, 
      "inputs": [[264, 0, 0], [499, 0, 0]]
    }, 
    {
      "op": "Reshape", 
      "name": "decoder_transformer_3_att_enc_reshape4", 
      "attrs": {"shape": "(0, -1, 8, 4)"}, 
      "inputs": [[500, 0, 0]]
    }, 
    {
      "op": "transpose", 
      "name": "decoder_transformer_3_att_enc_transpose2", 
      "attrs": {"axes": "(0, 2, 1, 3)"}, 
      "inputs": [[501, 0, 0]]
    }, 
    {
      "op": "Reshape", 
      "name": "decoder_transformer_3_att_enc_reshape5", 
      "attrs": {"shape": "(-3, -1, 4)"}, 
      "inputs": [[502, 0, 0]]
    }, 
    {
      "op": "batch_dot", 
      "name": "decoder_transformer_3_att_enc_dot_attbatch_dot1", 
      "inputs": [[498, 0, 0], [503, 0, 0]]
    }, 
    {
      "op": "Reshape", 
      "name": "decoder_transformer_3_att_enc_reshape6", 
      "attrs": {"shape": "(-4, -1, 8, 0, 4)"}, 
      "inputs": [[504, 0, 0]]
    }, 
    {
      "op": "transpose", 
      "name": "decoder_transformer_3_att_enc_transpose3", 
      "attrs": {"axes": "(0, 2, 1, 3)"}, 
      "inputs": [[505, 0, 0]]
    }, 
    {
      "op": "Reshape", 
      "name": "decoder_transformer_3_att_enc_reshape7", 
      "attrs": {"shape": "(-1, 0, 32)"}, 
      "inputs": [[506, 0, 0]]
    }, 
    {
      "op": "null", 
      "name": "decoder_transformer_3_att_enc_h2o_weight", 
      "attrs": {
        "__dtype__": "0", 
        "__lr_mult__": "1.0", 
        "__shape__": "(32, 0)", 
        "__storage_type__": "0", 
        "__wd_mult__": "1.0"
      }, 
      "inputs": []
    }, 
    {
      "op": "FullyConnected", 
      "name": "decoder_transformer_3_att_enc_h2o_fwd", 
      "attrs": {
        "flatten": "False", 
        "no_bias": "True", 
        "num_hidden": "32"
      }, 
      "inputs": [[507, 0, 0], [508, 0, 0]]
    }, 
    {
      "op": "Dropout", 
      "name": "decoder_transformer_3_att_enc_post_dropout0", 
      "attrs": {"p": "0.1"}, 
      "inputs": [[509, 0, 0]]
    }, 
    {
      "op": "elemwise_add", 
      "name": "decoder_transformer_3_att_enc_post__plus0", 
      "inputs": [[510, 0, 0], [480, 0, 0]]
    }, 
    {
      "op": "null", 
      "name": "decoder_transformer_3_ff_pre_norm_gamma", 
      "attrs": {
        "__dtype__": "0", 
        "__init__": "[\"constant\", {\"value\": 1.0}]", 
        "__lr_mult__": "1.0", 
        "__storage_type__": "0", 
        "__wd_mult__": "1.0"
      }, 
      "inputs": []
    }, 
    {
      "op": "null", 
      "name": "decoder_transformer_3_ff_pre_norm_beta", 
      "attrs": {
        "__dtype__": "0", 
        "__init__": "[\"constant\", {\"value\": 0.0}]", 
        "__lr_mult__": "1.0", 
        "__storage_type__": "0", 
        "__wd_mult__": "1.0"
      }, 
      "inputs": []
    }, 
    {
      "op": "LayerNorm", 
      "name": "decoder_transformer_3_ff_pre_normlayernorm0", 
      "attrs": {
        "axis": "-1", 
        "eps": "1e-06", 
        "output_mean_var": "False"
      }, 
      "inputs": [[511, 0, 0], [512, 0, 0], [513, 0, 0]]
    }, 
    {
      "op": "null", 
      "name": "decoder_transformer_3_ff_i2h_weight", 
      "attrs": {
        "__dtype__": "0", 
        "__lr_mult__": "1.0", 
        "__shape__": "(16, 0)", 
        "__storage_type__": "0", 
        "__wd_mult__": "1.0"
      }, 
      "inputs": []
    }, 
    {
      "op": "null", 
      "name": "decoder_transformer_3_ff_i2h_bias", 
      "attrs": {
        "__dtype__": "0", 
        "__init__": "zeros", 
        "__lr_mult__": "1.0", 
        "__shape__": "(16,)", 
        "__storage_type__": "0", 
        "__wd_mult__": "1.0"
      }, 
      "inputs": []
    }, 
    {
      "op": "FullyConnected", 
      "name": "decoder_transformer_3_ff_i2h_fwd", 
      "attrs": {
        "flatten": "False", 
        "no_bias": "False", 
        "num_hidden": "16"
      }, 
      "inputs": [[514, 0, 0], [515, 0, 0], [516, 0, 0]]
    }, 
    {
      "op": "Activation", 
      "name": "decoder_transformer_3_ff_relu0_fwd", 
      "attrs": {"act_type": "relu"}, 
      "inputs": [[517, 0, 0]]
    }, 
    {
      "op": "Dropout", 
      "name": "decoder_transformer_3_ff_dropout0", 
      "attrs": {"p": "0.1"}, 
      "inputs": [[518, 0, 0]]
    }, 
    {
      "op": "null", 
      "name": "decoder_transformer_3_ff_h2o_weight", 
      "attrs": {
        "__dtype__": "0", 
        "__lr_mult__": "1.0", 
        "__shape__": "(32, 0)", 
        "__storage_type__": "0", 
        "__wd_mult__": "1.0"
      }, 
      "inputs": []
    }, 
    {
      "op": "null", 
      "name": "decoder_transformer_3_ff_h2o_bias", 
      "attrs": {
        "__dtype__": "0", 
        "__init__": "zeros", 
        "__lr_mult__": "1.0", 
        "__shape__": "(32,)", 
        "__storage_type__": "0", 
        "__wd_mult__": "1.0"
      }, 
      "inputs": []
    }, 
    {
      "op": "FullyConnected", 
      "name": "decoder_transformer_3_ff_h2o_fwd", 
      "attrs": {
        "flatten": "False", 
        "no_bias": "False", 
        "num_hidden": "32"
      }, 
      "inputs": [[519, 0, 0], [520, 0, 0], [521, 0, 0]]
    }, 
    {
      "op": "Dropout", 
      "name": "decoder_transformer_3_ff_post_dropout0", 
      "attrs": {"p": "0.1"}, 
      "inputs": [[522, 0, 0]]
    }, 
    {
      "op": "elemwise_add", 
      "name": "decoder_transformer_3_ff_post__plus0", 
      "inputs": [[523, 0, 0], [511, 0, 0]]
    }, 
    {
      "op": "null", 
      "name": "decoder_transformer_final_process_norm_gamma", 
      "attrs": {
        "__dtype__": "0", 
        "__init__": "[\"constant\", {\"value\": 1.0}]", 
        "__lr_mult__": "1.0", 
        "__storage_type__": "0", 
        "__wd_mult__": "1.0"
      }, 
      "inputs": []
    }, 
    {
      "op": "null", 
      "name": "decoder_transformer_final_process_norm_beta", 
      "attrs": {
        "__dtype__": "0", 
        "__init__": "[\"constant\", {\"value\": 0.0}]", 
        "__lr_mult__": "1.0", 
        "__storage_type__": "0", 
        "__wd_mult__": "1.0"
      }, 
      "inputs": []
    }, 
    {
      "op": "LayerNorm", 
      "name": "decoder_transformer_final_process_normlayernorm0", 
      "attrs": {
        "axis": "-1", 
        "eps": "1e-06", 
        "output_mean_var": "False"
      }, 
      "inputs": [[524, 0, 0], [525, 0, 0], [526, 0, 0]]
    }, 
    {
      "op": "Reshape", 
      "name": "reshape3", 
      "attrs": {"shape": "(-3, 0)"}, 
      "inputs": [[527, 0, 0]]
    }, 
    {
      "op": "null", 
      "name": "target_output_weight", 
      "attrs": {
        "__dtype__": "0", 
        "__shape__": "(9, 32)"
      }, 
      "inputs": []
    }, 
    {
      "op": "null", 
      "name": "target_output_bias", 
      "inputs": []
    }, 
    {
      "op": "FullyConnected", 
      "name": "logits", 
      "attrs": {
        "flatten": "False", 
        "num_hidden": "9"
      }, 
      "inputs": [[528, 0, 0], [529, 0, 0], [530, 0, 0]]
    }, 
    {
      "op": "null", 
      "name": "target_label", 
      "inputs": []
    }, 
    {
      "op": "Reshape", 
      "name": "reshape0", 
      "attrs": {"shape": "(-1,)"}, 
      "inputs": [[532, 0, 0]]
    }, 
    {
      "op": "SoftmaxOutput", 
      "name": "softmax", 
      "attrs": {
        "ignore_label": "0", 
        "normalization": "valid", 
        "smooth_alpha": "0.1", 
        "use_ignore": "True"
      }, 
      "inputs": [[531, 0, 0], [533, 0, 0]]
    }
  ], 
  "arg_nodes": [
    0, 
    1, 
    19, 
    20, 
    22, 
    50, 
    54, 
    55, 
    57, 
    63, 
    65, 
    67, 
    86, 
    87, 
    89, 
    122, 
    126, 
    127, 
    129, 
    130, 
    134, 
    135, 
    139, 
    140, 
    142, 
    163, 
    167, 
    168, 
    170, 
    171, 
    175, 
    176, 
    180, 
    181, 
    183, 
    204, 
    208, 
    209, 
    211, 
    212, 
    216, 
    217, 
    221, 
    222, 
    224, 
    245, 
    249, 
    250, 
    252, 
    253, 
    257, 
    258, 
    262, 
    263, 
    265, 
    283, 
    292, 
    296, 
    297, 
    299, 
    300, 
    304, 
    305, 
    309, 
    310, 
    312, 
    333, 
    337, 
    338, 
    340, 
    346, 
    355, 
    364, 
    368, 
    369, 
    371, 
    372, 
    376, 
    377, 
    381, 
    382, 
    384, 
    405, 
    409, 
    410, 
    412, 
    418, 
    427, 
    436, 
    440, 
    441, 
    443, 
    444, 
    448, 
    449, 
    453, 
    454, 
    456, 
    477, 
    481, 
    482, 
    484, 
    490, 
    499, 
    508, 
    512, 
    513, 
    515, 
    516, 
    520, 
    521, 
    525, 
    526, 
    529, 
    530, 
    532
  ], 
  "node_row_ptr": [
    0, 
    1, 
    2, 
    3, 
    4, 
    5, 
    6, 
    7, 
    8, 
    9, 
    10, 
    11, 
    12, 
    13, 
    14, 
    15, 
    16, 
    17, 
    18, 
    20, 
    21, 
    22, 
    25, 
    26, 
    27, 
    30, 
    31, 
    32, 
    33, 
    34, 
    35, 
    36, 
    37, 
    38, 
    39, 
    40, 
    41, 
    42, 
    43, 
    44, 
    45, 
    46, 
    47, 
    49, 
    50, 
    51, 
    52, 
    53, 
    54, 
    55, 
    56, 
    57, 
    58, 
    60, 
    61, 
    62, 
    63, 
    66, 
    67, 
    68, 
    69, 
    70, 
    71, 
    72, 
    73, 
    75, 
    76, 
    77, 
    78, 
    79, 
    80, 
    81, 
    82, 
    83, 
    84, 
    85, 
    86, 
    87, 
    88, 
    89, 
    90, 
    91, 
    92, 
    93, 
    94, 
    95, 
    97, 
    98, 
    99, 
    102, 
    103, 
    104, 
    107, 
    108, 
    109, 
    110, 
    111, 
    112, 
    113, 
    114, 
    115, 
    117, 
    118, 
    119, 
    120, 
    121, 
    122, 
    123, 
    124, 
    125, 
    126, 
    127, 
    128, 
    129, 
    130, 
    132, 
    133, 
    134, 
    135, 
    136, 
    137, 
    138, 
    139, 
    140, 
    141, 
    143, 
    144, 
    145, 
    146, 
    149, 
    150, 
    151, 
    152, 
    153, 
    155, 
    156, 
    157, 
    158, 
    160, 
    161, 
    162, 
    163, 
    166, 
    167, 
    168, 
    171, 
    172, 
    173, 
    174, 
    175, 
    176, 
    177, 
    178, 
    179, 
    180, 
    181, 
    183, 
    184, 
    185, 
    186, 
    187, 
    188, 
    189, 
    190, 
    191, 
    192, 
    194, 
    195, 
    196, 
    197, 
    200, 
    201, 
    202, 
    203, 
    204, 
    206, 
    207, 
    208, 
    209, 
    211, 
    212, 
    213, 
    214, 
    217, 
    218, 
    219, 
    222, 
    223, 
    224, 
    225, 
    226, 
    227, 
    228, 
    229, 
    230, 
    231, 
    232, 
    234, 
    235, 
    236, 
    237, 
    238, 
    239, 
    240, 
    241, 
    242, 
    243, 
    245, 
    246, 
    247, 
    248, 
    251, 
    252, 
    253, 
    254, 
    255, 
    257, 
    258, 
    259, 
    260, 
    262, 
    263, 
    264, 
    265, 
    268, 
    269, 
    270, 
    273, 
    274, 
    275, 
    276, 
    277, 
    278, 
    279, 
    280, 
    281, 
    282, 
    283, 
    285, 
    286, 
    287, 
    288, 
    289, 
    290, 
    291, 
    292, 
    293, 
    294, 
    296, 
    297, 
    298, 
    299, 
    302, 
    303, 
    304, 
    305, 
    306, 
    308, 
    309, 
    310, 
    311, 
    313, 
    314, 
    315, 
    316, 
    319, 
    320, 
    321, 
    322, 
    323, 
    324, 
    325, 
    326, 
    327, 
    328, 
    329, 
    330, 
    331, 
    332, 
    333, 
    334, 
    335, 
    336, 
    338, 
    339, 
    340, 
    341, 
    342, 
    343, 
    344, 
    345, 
    346, 
    347, 
    348, 
    349, 
    351, 
    352, 
    353, 
    354, 
    357, 
    358, 
    359, 
    360, 
    361, 
    363, 
    364, 
    365, 
    366, 
    368, 
    369, 
    370, 
    371, 
    374, 
    375, 
    376, 
    379, 
    380, 
    381, 
    382, 
    383, 
    384, 
    385, 
    386, 
    387, 
    388, 
    389, 
    391, 
    392, 
    393, 
    394, 
    395, 
    396, 
    397, 
    398, 
    399, 
    400, 
    402, 
    403, 
    404, 
    405, 
    408, 
    409, 
    410, 
    411, 
    412, 
    413, 
    414, 
    415, 
    416, 
    417, 
    418, 
    419, 
    420, 
    421, 
    422, 
    424, 
    425, 
    426, 
    427, 
    428, 
    429, 
    430, 
    431, 
    432, 
    433, 
    434, 
    435, 
    437, 
    438, 
    439, 
    440, 
    443, 
    444, 
    445, 
    446, 
    447, 
    449, 
    450, 
    451, 
    452, 
    454, 
    455, 
    456, 
    457, 
    460, 
    461, 
    462, 
    465, 
    466, 
    467, 
    468, 
    469, 
    470, 
    471, 
    472, 
    473, 
    474, 
    475, 
    477, 
    478, 
    479, 
    480, 
    481, 
    482, 
    483, 
    484, 
    485, 
    486, 
    488, 
    489, 
    490, 
    491, 
    494, 
    495, 
    496, 
    497, 
    498, 
    499, 
    500, 
    501, 
    502, 
    503, 
    504, 
    505, 
    506, 
    507, 
    508, 
    510, 
    511, 
    512, 
    513, 
    514, 
    515, 
    516, 
    517, 
    518, 
    519, 
    520, 
    521, 
    523, 
    524, 
    525, 
    526, 
    529, 
    530, 
    531, 
    532, 
    533, 
    535, 
    536, 
    537, 
    538, 
    540, 
    541, 
    542, 
    543, 
    546, 
    547, 
    548, 
    551, 
    552, 
    553, 
    554, 
    555, 
    556, 
    557, 
    558, 
    559, 
    560, 
    561, 
    563, 
    564, 
    565, 
    566, 
    567, 
    568, 
    569, 
    570, 
    571, 
    572, 
    574, 
    575, 
    576, 
    577, 
    580, 
    581, 
    582, 
    583, 
    584, 
    585, 
    586, 
    587, 
    588, 
    589, 
    590, 
    591, 
    592, 
    593, 
    594, 
    596, 
    597, 
    598, 
    599, 
    600, 
    601, 
    602, 
    603, 
    604, 
    605, 
    606, 
    607, 
    609, 
    610, 
    611, 
    612, 
    615, 
    616, 
    617, 
    618, 
    619, 
    621, 
    622, 
    623, 
    624, 
    626, 
    627, 
    628, 
    629, 
    632, 
    633, 
    634, 
    635, 
    636, 
    637, 
    638, 
    639
  ], 
  "heads": [[534, 0, 0]], 
  "attrs": {"mxnet_version": ["int", 10500]}
}